models/classifier_models/best_model_f_mnist.bin (torch, 387362 bytes, 20 tensors)

feature_extractor.0.weight f4 [32, 1, 3, 3]
000000 f9 6a 2c 3d fc 8d 94 3e 30 1f 2e 3e 94 8c ab be
       0.042094205 0.29014575 0.17004085 -0.3350569
000010 6b 22 92 be 68 13 2c be ff e7 21 3e c0 6a 97 3e
       -0.28541884 -0.16804278 0.15811156 0.2957363
000020 3a 4e 40 3e 09 0c 72 be 6f f2 73 3e 92 f9 36 3c
       0.18779841 -0.23637404 0.2382295 0.011167901
000030 f9 9b bd be e2 dc c3 3e 42 bf 97 bc 73 60 80 be
       -0.3703306 0.38254458 -0.018523816 -0.25073585
000040 5f 45 1f 3e c3 df ba 3d b8 64 84 be de c4 a2 3e
       0.15553807 0.091247104 -0.25858092 0.31790823
000050 39 27 3b 3d e9 58 5f 3e f7 92 06 3d 58 9d a7 be
       0.045691703 0.2181126 0.032855 -0.3273723
000060 4b 57 19 3c 55 e0 82 be de 63 09 bf f9 00 04 3d
       0.009359191 -0.25561777 -0.5366801 0.03222749
000070 cc e0 3e bd b5 c3 66 bd 85 52 f4 3c 40 e1 20 be
       -0.0466011 -0.056338985 0.029824505 -0.15710926
000080 8c 51 27 bf 29 63 8c 3d 77 44 a2 3e 58 3a f9 be
       -0.65358806 0.06854851 0.3169286 -0.48677325
000090 0d c8 56 3d 34 ef 80 bd 61 db 85 bd 54 d3 4b 3d
       0.052436877 -0.062956244 -0.06535984 0.049762085
0000a0 93 be e8 be b7 ee 31 bf 85 1c 4d 3e c9 1e c8 be
       -0.45457897 -0.69504875 0.2003041 -0.39085987
0000b0 3a 97 23 bf 2a 2b 6e bf 0f 32 ce be b1 ef 81 3b
       -0.6390263 -0.93034613 -0.40272567 0.003965341
0000c0 53 16 23 bf 83 d9 7c be c8 65 5f 3e be c7 dc 3d
       -0.6370594 -0.24692349 0.2181617 0.10780285
0000d0 be 00 01 3e 76 e1 07 3d 3d 49 3a be 3e 15 39 bf
       0.1259794 0.033174 -0.18192 -0.7229804
0000e0 4e 44 6f be 0d 0c 6d bd d3 a4 45 bf 4e 7c f1 bd
       -0.233659 -0.05787282 -0.77204627 -0.11791287
0000f0 91 99 aa 3d fb 40 38 bc fe 3a 91 3d a4 e8 cb 3e
       0.08330072 -0.011245961 0.0709133 0.39825928
000100 e8 18 c8 be 22 9b d4 bb 64 96 91 3e 41 39 6e bd
       -0.39081502 -0.00648822 0.2843505 -0.05816007
000110 94 b7 71 be 57 cc 53 3e ed 96 14 bd 33 22 2c be
       -0.23605186 0.20683418 -0.036276747 -0.16809921
000120 a9 cf 90 3e b6 75 97 3a 9d 6e c8 be 37 07 37 3e
       0.28283432 0.0011555466 -0.3914689 0.17873846
000130 09 e6 ad 3e e5 c0 8c bd c7 fa 67 3c 94 3b bc 3e
       0.33964565 -0.06872729 0.014158911 0.36764205
000140 f6 e4 ae be f9 45 52 3e 09 8f ca 3d e1 05 9d be
       -0.34159058 0.20534505 0.09890563 -0.30668548
000150 de 4a 8c 3e 07 c2 d2 3d 00 73 c6 be e6 05 a8 3e
       0.2740087 0.10290914 -0.38759613 0.32817
000160 f5 0c 49 be 08 84 11 be d4 21 8b be 34 58 62 3d
       -0.19633849 -0.14210522 -0.27174246 0.0552599
000170 e5 90 76 3e f9 f2 9e bc 1b 3a f5 be e7 ac fa 3e
       0.2407871 -0.019402968 -0.47895893 0.4896004
000180 03 98 9c 3e 8e b4 2d be d7 ea 08 be 41 82 79 be
       0.30584726 -0.16963407 -0.13370834 -0.24366094
000190 0b 16 e3 3d aa 25 43 3e 11 99 56 bd a1 ea b5 be
       0.11088189 0.19057336 -0.05239207 -0.3553057
0001a0 51 1e b3 be 42 e4 9a 3e 14 f4 6d 3e a4 3d 3c 3e
       -0.34984067 0.30252272 0.2323764 0.18382889
0001b0 2c b6 85 3e 0b fd d5 3e 23 e4 23 3e d2 00 09 be
       0.2611555 0.4179462 0.16004996 -0.13379219
0001c0 fe 7b 41 bc 73 38 53 bd ea d1 b1 be 29 8f 8a be
       -0.011809347 -0.051567506 -0.34730464 -0.27062348
0001d0 cb 56 20 3c 71 ac c4 be 18 c6 24 bf 82 5f 7f be
       0.009786318 -0.38412812 -0.6436477 -0.24938777
0001e0 46 83 33 be 78 b9 c9 3d 57 14 b9 3e 68 9d 4a bd
       -0.17530546 0.098498285 0.3614833 -0.04946652
0001f0 8f b5 f9 3d 9b d2 5a 3d 12 13 f4 3d 10 e7 ea 3d
       0.12192833 0.053423505 0.119177 0.11469853
000200 9b 27 fc 3d 28 b8 06 bd 68 4a 55 be 90 27 18 3e
       0.12312242 -0.03289047 -0.20829165 0.14858842
000210 78 17 1b be 08 e9 50 bf 35 00 89 be 13 b5 7c bd
       -0.15145671 -0.8160558 -0.2675797 -0.061696123
000220 34 f7 81 3d 8e 57 ec 3b da db dd 3e 04 db 26 be
       0.063459784 0.007212586 0.43331796 -0.16294485
000230 30 9b 91 be fd 55 bb be a2 7c b2 3d a5 53 8e 3e
       -0.2843871 -0.3658904 0.08715178 0.2779819
000240 6f 29 1d 3d 9d 82 0c be cd eb b1 3d c1 98 b0 3d
       0.038369592 -0.137217 0.086875536 0.086228855
000250 ca 70 00 bd 9f 94 f6 3c a1 e5 b1 3e 21 5c fe be
       -0.031357564 0.030100165 0.34745505 -0.49679664
000260 cf d0 bb 3e 35 aa 4d 3e 4f fe 88 3e be de f0 be
       0.36682746 0.2008446 0.26756522 -0.4704494
000270 c5 1d 48 be 74 b0 f1 3b d2 49 29 3e bd 1e e2 bc
       -0.19542606 0.007375771 0.16532066 -0.027602548
000280 28 0b 95 be 00 4d 9a 3e 5c 1e 9e 3d 0a 1b a0 bd
       -0.29110074 0.3013687 0.07720634 -0.07817657
000290 10 f0 bd 3d 94 3e a4 bc de 2e 26 bf 67 49 c7 3d
       0.09274304 -0.02004937 -0.64915264 0.09730797
0002a0 be e6 79 bd f4 96 86 bf ac 05 3d 3b b2 ed 0a bf
       -0.06101107 -1.0514817 0.0028842492 -0.54268944
0002b0 71 ae 63 be 71 6f 99 3e 43 c0 62 bf b1 cd 05 3e
       -0.22234513 0.29967836 -0.8857462 0.13066746
0002c0 31 7a 98 3d cf 10 89 be 1e ca 4f 3d 66 95 26 be
       0.07445181 -0.26770636 0.050729863 -0.16267928
0002d0 12 0a 4d 3d 0b 70 bf be b7 76 aa 3b c1 61 e3 3e
       0.050058432 -0.3739017 0.00520214 0.44410518
0002e0 96 9c aa be b9 cf 4b 3e b9 e6 2d 3e f6 45 b4 be
       -0.3332259 0.19903459 0.16982545 -0.35209626
0002f0 87 d1 28 bd 57 5a 8b be 13 b7 a3 3c 9d ae 91 3d
       -0.041215446 -0.2721736 0.019984758 0.07113383
000300 60 89 25 bf eb 0a c1 bc 5a 15 77 3d a6 12 77 be
       -0.6466274 -0.023564776 0.060323097 -0.24128208
000310 ce 77 94 bc 9e 33 02 3f 38 d8 6f be f4 ad 21 be
       -0.018123534 0.5086001 -0.23422325 -0.15789014
000320 94 fc 9a be fd ce 75 bd e9 4d 76 bd 16 de 93 bc
       -0.30270827 -0.060011853 -0.060132895 -0.018050235
000330 77 af 9f 3e e8 bc 53 3e ec 83 ab 3e 5f 0d 08 bd
       0.31188557 0.20677531 0.33499086 -0.033215877
000340 92 9d 92 bd 6f c7 b7 3c 01 4d 21 bf 7f 57 28 bf
       -0.071589604 0.022433965 -0.63008124 -0.6575851
000350 9d fa 33 be cd fe e0 be 32 b2 26 bf 10 90 41 3d
       -0.1757607 -0.43944398 -0.65115654 0.04725653
000360 e6 f9 28 be 3d 4a 93 3e c3 8d f1 3c 55 18 e4 3e
       -0.16501579 0.28767577 0.029486543 0.44549814
000370 f1 8d 4e 3e 8a 24 f7 bd a9 9c 02 be fa 51 83 be
       0.20171334 -0.12067516 -0.12755074 -0.2564848
000380 37 ee 98 be 68 08 2d 3e 0b 90 5b 3e 26 71 68 3e
       -0.29869244 0.16897738 0.21441667 0.22699413
000390 f3 d3 95 3e 7c 97 bf 3e 78 44 83 3e ee a3 2c be
       0.29263267 0.3742026 0.25638175 -0.16859409
0003a0 ce 60 47 be 0c 21 0a be dd 36 99 be ab c7 a0 be
       -0.19470522 -0.13489169 -0.2992467 -0.31402335
0003b0 70 c5 87 be 84 56 91 3e 57 30 98 3e 15 63 94 3e
       -0.2651782 0.2838632 0.2972438 0.28981844
0003c0 fb 03 fb 3c 22 10 a6 bc 17 ad 06 3c aa ca 95 be
       0.030641546 -0.020271365 0.008219979 -0.29256183
0003d0 2d 13 8f 3e 06 d1 cd 3c eb 69 24 be 49 54 95 3e
       0.27944317 0.025124084 -0.1605603 0.29165867
0003e0 5a 5e 06 be 01 1c 93 3b 09 5d d3 3e 77 4f d5 be
       -0.1312193 0.0044894223 0.41281918 -0.4166219
0003f0 8a c1 51 bc b3 26 02 3e 59 ff 09 be b4 e9 15 be
       -0.012802491 0.12710075 -0.13476314 -0.14639932

feature_extractor.0.bias f4 [32]
000000 9d 69 e7 3d 62 c3 e7 3e 6a dc 7e 3e 24 1d da 3e
       0.11299441 0.45266253 0.24888769 0.42600358
000010 bc 12 cc be 08 8b 52 be a7 69 86 be 0f ae 08 3e
       -0.39858043 -0.20560849 -0.2625248 0.13347648
000020 ae 30 a8 be 08 34 50 3b 18 77 e1 3d eb 17 13 3d
       -0.3284964 0.0031769294 0.110090435 0.03591148
000030 06 bb 86 3c 64 ae 3d 3c 11 c5 8c bd d6 75 ab bc
       0.016446602 0.0115772225 -0.06873525 -0.020930212
000040 3e 54 63 be 69 fa bb bd 71 a6 f7 bd 26 ce 60 3e
       -0.22200105 -0.09178621 -0.12092293 0.2195364
000050 42 83 02 3e 6c c4 8e be 39 59 73 3e 36 7b 82 3e
       0.12745383 -0.27884233 0.23764504 0.25484627
000060 95 a9 3b bd 3e 8d 75 3e b9 9e a4 3e 54 e2 92 be
       -0.045816023 0.23979661 0.32152346 -0.286883
000070 07 a0 f1 3e 7a 67 b6 3e 2b 27 53 be 27 b6 22 3f
       0.47192404 0.3562582 -0.2062041 0.6355919

feature_extractor.1.weight f4 [32]
000000 18 42 17 3f 63 d1 18 3f be 95 8c 3f 5f cb 76 3f
       0.59085226 0.596945 1.0983198 0.9640407
000010 b4 58 a5 3f 0e 50 9b 3f f5 00 a2 3f 6f 7a 0a 3f
       1.2917695 1.2133806 1.2656542 0.5409307
000020 e1 00 13 3f 2d 57 1c 3f 05 99 f8 3e ee 6e a7 3e
       0.57423216 0.6107052 0.48554245 0.3270182
000030 88 5b 01 3f d4 c2 8f 3f d1 31 99 3f b7 f0 bc 3e
       0.5053029 1.1231332 1.1968328 0.369024
000040 a5 7c 3b 3f 3c f5 bb 3e 15 ba aa 3f 45 dc 94 3f
       0.7323707 0.36710536 1.3338038 1.1629721
000050 28 7b 15 3f 79 63 7e 3f 76 6e 0d 3f a9 ba a1 3f
       0.58391047 0.99370533 0.55246675 1.2635089
000060 a9 08 d7 3e a3 02 3a 3f d2 94 34 3f 9a b0 09 3f
       0.41998795 0.72660273 0.7053958 0.537851
000070 4c df 06 3f 4c bc a0 3f 78 69 17 3f f9 10 35 3f
       0.52684474 1.2557464 0.5914531 0.70729023

feature_extractor.1.bias f4 [32]
000000 24 78 2b bf 1e 04 a2 bd dc e2 61 bf e2 ff fa be
       -0.66980195 -0.079109415 -0.88236785 -0.49023348
000010 8a 29 6f bf 37 eb 5e bf c5 e9 58 bf 9f df 1f 3c
       -0.9342276 -0.8707766 -0.84731704 0.009757905
000020 c5 bf eb be 16 e0 b9 bc ee bc 81 3c 84 8e b2 b9
       -0.46044746 -0.02268986 0.015837159 -0.00034056988
000030 79 c8 8f bd 8b a0 5d bf c9 07 4c bf 48 8f 3e bd
       -0.07020659 -0.86573094 -0.7969938 -0.046523362
000040 ee d6 34 bf a5 25 72 bd 2c 33 65 bf 6b b7 4f bf
       -0.70640457 -0.059117932 -0.8953121 -0.8113925
000050 8b 81 68 be c9 42 13 bf fe 0b 57 bc 7e 0d 6d bf
       -0.22705667 -0.5752378 -0.013125418 -0.9259871
000060 8a 2d 2d bd 2a 30 2c bf 20 9f d5 bd 6d df ad bd
       -0.042279758 -0.6726099 -0.10430741 -0.08489881
000070 56 00 9d bd e5 37 6c bf ea f2 2b bd 91 4a 0b bf
       -0.0766608 -0.9227279 -0.041979708 -0.54410654

feature_extractor.1.running_mean f4 [32]
000000 c5 83 a5 bb 8f b7 d6 3e 63 fa 06 3f b1 3c 4c 3f
       -0.0050511085 0.4193692 0.5272581 0.7978011
000010 97 4e d0 3e 67 fd f2 3e 0f 32 0a 3f 70 95 19 3e
       0.4068496 0.47458956 0.53982633 0.14998412
000020 c6 c1 02 bf 62 dd f8 3b af 48 02 3e 5e 6a 88 3d
       -0.51076925 0.0075947503 0.12723039 0.06660913
000030 82 8e 3a 3b c6 72 b3 3e c3 6a a7 3e 92 3c 64 bc
       0.002846629 0.35048503 0.3269864 -0.013930457
000040 c0 79 9d be 93 8d 9d bd 15 40 0b 3f 57 2e 4e 3f
       -0.3075695 -0.07693019 0.54394656 0.8053946
000050 a6 da 75 3e 79 f2 87 bd 9c 66 7b 3e f7 de a6 3f
       0.24009189 -0.06638045 0.24550861 1.3036793
000060 a4 c4 92 bd 62 40 3b be 4d 49 9a 3e 0d ca a7 be
       -0.071664125 -0.18286279 0.3013405 -0.3277134
000070 51 21 d9 3e 82 23 79 3f b5 9d 63 be 90 5a 43 3f
       0.4240823 0.97319806 -0.22228129 0.7631006

feature_extractor.1.running_var f4 [32]
000000 09 b1 bb 3d 3c 66 dd 3d 27 30 97 3e c9 b1 f4 3e
       0.09164626 0.10810515 0.29528925 0.4779189
000010 e9 8c e0 3f ca 16 b6 3f 9e 29 cf 3f d0 3f 0f 3e
       1.7543002 1.4225705 1.6184576 0.13989186
000020 d8 a9 62 3e d1 ef 47 3e 52 1c 97 3d d1 7b 6f 3d
       0.22135103 0.19525076 0.073784485 0.05846769
000030 e8 3d f0 3d b5 60 df 3e 09 86 06 3f d4 dc 91 3c
       0.11730558 0.4362847 0.5254827 0.017805494
000040 5b 50 87 3d cb 0a db 3c d0 c8 9a 3f 8e a2 8c 3f
       0.066071235 0.026738545 1.2092533 1.0987108
000050 e6 c0 fc 3d e6 8f b5 3e 50 22 e6 3d fd 49 2c 40
       0.1234148 0.35461348 0.11237013 2.692016
000060 d2 ef a7 3d f5 12 f5 3e 4f a9 9e 3d 76 f7 9e 3d
       0.08200039 0.47866026 0.07747137 0.07762043
000070 2a 8f ab 3d 1b 39 8d 3f 75 ac 17 3e f1 fd e4 3d
       0.08376916 1.1033052 0.14811881 0.11181248

feature_extractor.5.weight f4 [64, 32, 3, 3]
000000 ee d0 ac 3a 0d ee ca bd 0b ac 19 be f4 f0 b8 3d
       0.0013184824 -0.09908686 -0.15007035 0.09030333
000010 ed 7f 85 bc 03 60 71 bd 0c 47 05 be 92 c6 cd 3d
       -0.016296351 -0.058929455 -0.13015383 0.1004764
000020 7c 49 83 bd 6d 99 a6 3d 3c e7 e5 3d 64 ee 08 3e
       -0.064105004 0.081347324 0.11225745 0.13372189
000030 33 22 ac 3d 0e 75 9e 3c de 20 f1 3c bb 93 d9 3d
       0.084049605 0.019342925 0.029434618 0.106238805
000040 13 25 60 be ed fb df bc 0b b1 a9 3e 3a b1 06 3e
       -0.21889143 -0.027341807 0.33142886 0.13153544
000050 52 b1 b1 bd fa a8 34 3e 77 2c ad bd 29 94 22 3e
       -0.08676399 0.17642584 -0.084557466 0.15876831
000060 57 66 03 bc ec 7d 15 bf 84 09 9c bd 9a a4 aa 3d
       -0.008020005 -0.58395267 -0.076190025 0.083321765
000070 ea c7 1d 3e b0 69 ec 3e 45 db 5b 3d d9 da 29 3e
       0.15408292 0.46174383 0.05367591 0.1658739
000080 bb cc aa 3e a6 72 ad bd 09 f1 12 3c a4 a8 16 3e
       0.33359322 -0.08469133 0.0089686 0.14712769
000090 5c 28 80 3d 78 cb 89 3e c8 66 b6 3e 88 c9 52 3e
       0.06257698 0.26913047 0.3562529 0.2058469
0000a0 2b 44 66 3e be f3 d4 3e 38 64 9b be 09 ec a0 be
       0.22486942 0.4159221 -0.30349898 -0.3143008
0000b0 55 a3 bf bd 3f 90 b4 3e 85 32 7f 3d 45 cf 66 bd
       -0.09357325 0.352663 0.06230404 -0.05635001
0000c0 d3 7e 02 3e ac 40 5e 3e 27 56 bc 3d 6a e9 3e 3e
       0.12743692 0.21704358 0.0919612 0.18643728
0000d0 0e 66 2c 3e 7c 1a c8 bd 2a 15 ad 3c 2f 93 a9 bd
       0.16835806 -0.097706765 0.021128256 -0.08280026
0000e0 4c 30 61 3e 69 5a 2e 3e 1f 5d cc 3d 18 ea 69 3e
       0.2199108 0.17026676 0.09978699 0.22843206
0000f0 89 fd 8d 3e ed 47 c3 3d d2 25 81 3e be ec 41 bd
       0.27732494 0.09535203 0.25224167 -0.047344916
000100 81 1c 81 3d 28 f8 12 3d f3 ca ee bc d9 60 42 3d
       0.06304265 0.03588119 -0.029149508 0.047455642
000110 9e fc 38 3e d7 bf c3 be 17 96 79 be e1 c7 0a be
       0.18065116 -0.382323 -0.24373661 -0.1355281
000120 5a 44 4c be e6 49 8b bd be b6 31 bb cb 4f 41 be
       -0.19947949 -0.068012044 -0.002711698 -0.18878095
000130 fe 55 8f 3d 60 05 bf 3d 1a d7 fe be 85 9e c8 be
       0.069988236 0.09327197 -0.49773484 -0.3918344
000140 8f aa 87 be 71 6d 93 3d 17 42 9c 3d a1 c0 01 3d
       -0.26497313 0.07198609 0.07629793 0.031677846
000150 ad 13 1e bd 40 e0 77 3c b8 1e 49 3e bd 5a d5 be
       -0.038592983 0.015129149 0.19640625 -0.4167079
000160 a7 c9 85 be 52 cb 86 3d 49 ed 98 bd f1 19 39 3e
       -0.2613041 0.06581749 -0.074671336 0.18076302
000170 66 17 38 3e 74 b8 8a bc 4f 20 87 3d 29 df 46 3e
       0.17977676 -0.016933657 0.06597959 0.19421066
000180 37 e2 8e be ba 91 19 bd de c6 b9 be 69 63 97 bd
       -0.27906963 -0.03749249 -0.36284536 -0.07392008
000190 ea b2 e6 3d 51 d3 96 3d 47 a5 b8 bb 08 b8 03 bd
       0.11264594 0.07364524 -0.005634937 -0.032157928
0001a0 bc de 8d 3a 2e 0e 38 3d ba a9 3a 3e 63 98 2b 3e
       0.0010823826 0.044935398 0.18228808 0.1675735
0001b0 08 af ab 3c 14 0e 8d bb 11 e4 82 3d 9c d2 9a bd
       0.020957485 -0.0043046568 0.063911565 -0.07559702
0001c0 4e e6 f4 bd 7d db 4c bd 95 1b af bc 40 8c 55 be
       -0.1195799 -0.050014008 -0.021375457 -0.20854282
0001d0 a0 db 2b be c3 f4 5b 3e 07 61 be be 62 b0 1d bf
       -0.16782999 0.21480088 -0.371834 -0.61597264
0001e0 8e 33 78 3d ca 40 31 be 59 ad d1 be 6b 7c 36 3e
       0.06059604 -0.17309871 -0.40952566 0.17820899
0001f0 91 ea 03 3e 1f f3 29 bd e2 5f 30 bd 3f 8e 34 3c
       0.12882449 -0.041491624 -0.04306019 0.011020242
000200 6b c2 86 3d bc 7a 56 3e 4c d8 8b 3c a2 b8 02 3e
       0.06580051 0.20945257 0.017070912 0.12765744
000210 40 94 89 be 30 a4 d4 be 79 95 81 be 91 f8 5b 3e
       -0.26870918 -0.41531515 -0.2530935 0.2148154
000220 cd c3 4e 3d 48 bb 04 3e 41 70 14 3e 30 8f c8 bd
       0.0504797 0.12962067 0.14495946 -0.09792936
000230 12 16 42 3c f8 40 86 bd 36 2b 8d bd 38 7f 0d 3d
       0.011846082 -0.065553606 -0.068930075 0.034545153
000240 f8 64 09 be 3d b9 16 be 64 37 21 be 87 77 2f bd
       -0.13417423 -0.147191 -0.15743786 -0.0428386
000250 7d f4 17 3c 7c 77 44 be b6 97 f0 be 62 53 19 be
       0.009274599 -0.19186205 -0.46990746 -0.14973214
000260 3b 96 df be 57 b8 7e 3d c5 65 2a 3e 2c a8 09 3e
       -0.43669304 0.06218752 0.16640384 0.13443059
000270 70 e1 bc 3d 34 1d 10 bd 10 0b a0 bc 1b a3 32 bd
       0.09222686 -0.0351841 -0.019536525 -0.04361258
000280 89 91 2b be ac 6c 62 be 85 63 50 3e f2 73 f4 3e
       -0.16754736 -0.22111768 0.20350464 0.4774471
000290 a2 9e 0e 3e f6 9b 01 3f 17 70 03 3f b1 5e 6b 3e
       0.13927701 0.506286 0.5134291 0.2298534
0002a0 5c 74 a6 be 4f 2b c7 be f8 85 e5 be 7f 3c ca 3e
       -0.3251065 -0.3890023 -0.44828773 0.3949928
0002b0 8b 4e a5 3e c4 b8 34 3d 21 70 ce 3e b4 44 c1 3e
       0.32286486 0.04412152 0.40319923 0.3774773
0002c0 71 46 95 3e e3 d0 12 bd 63 59 05 be 36 96 95 be
       0.29155305 -0.03584374 -0.1302238 -0.29216164
0002d0 3c e9 d0 bb 9a 84 c4 3d 2d 6f 8c 3d db b9 03 3e
       -0.00637546 0.09595604 0.068571426 0.12863867
0002e0 7d 55 39 bc 6b 0c b6 3d 66 ef b7 be 8c dd f8 3c
       -0.011311886 0.08889087 -0.35924834 0.03037908
0002f0 d4 3a 2c be 99 ff ff 3d a2 4c 86 3c 3e 9a 0c bb
       -0.16819316 0.12499923 0.016393963 -0.002145424
000300 00 6a 4e 3e e0 23 9e bc af 61 fc bd 37 02 ad 3d
       0.20157623 -0.019304216 -0.12323319 0.08447688
000310 58 b7 07 be 5d ce 2e be 75 e0 67 be 5c b6 97 be
       -0.13253534 -0.17070909 -0.22644217 -0.29631317
000320 4f ca d3 bd 6a 62 26 bd a2 81 fe bd c9 6e da bc
       -0.10341322 -0.0406212 -0.12427069 -0.026664155
000330 c6 e1 82 3e a6 d3 ca 3c 5b 5b ed 3d da 93 3b 3e
       0.25562876 0.024759125 0.1158969 0.1831812
000340 1c 64 63 3e 7e 33 eb 3d a0 40 96 3e df ce b2 3e
       0.22206157 0.11484431 0.2934618 0.34923455
000350 90 55 31 3e 79 91 7b be f8 d6 43 be d8 49 b4 be
       0.17317796 -0.24567212 -0.19124973 -0.35212588
000360 27 ce 8a 3d d7 0c 9f 3d c2 78 88 bd 99 72 00 3e
       0.06777602 0.07766121 -0.06663658 0.12543716
000370 c3 c8 a6 bb 9c 75 9c bc b7 82 98 bd 19 35 60 be
       -0.0050898506 -0.01909905 -0.07446807 -0.21895255
000380 a8 9e 81 be 91 41 a3 be de 35 a0 be 4b a7 62 be
       -0.25316358 -0.3188596 -0.31291097 -0.2213413
000390 cf f0 1f be 64 be a7 be 4a 66 9e be 22 01 a4 be
       -0.15619205 -0.32762444 -0.30937415 -0.32032114
0003a0 78 d3 a0 be 3d 6c d1 be 96 e3 a9 bd 7c e6 57 be
       -0.31411338 -0.40902892 -0.08295362 -0.21084017
0003b0 ad 19 8e bd a5 82 52 be 6f 1e 33 be ab e1 41 be
       -0.06938491 -0.2055765 -0.17492078 -0.18933742
0003c0 16 e1 ec 3d 88 48 ac 3d 2c 4e cb 3c 3d d8 13 3e
       0.11566369 0.08412272 0.024817549 0.14437957
0003d0 c2 fa 0b 3e 88 dd 8d bd bc 03 ac 3c de 92 9b 3d
       0.13669875 -0.06927019 0.020997874 0.07596372
0003e0 cd be 70 3d 91 a4 d5 bd 07 46 1b be 75 46 9d bd
       0.05877571 -0.10431779 -0.15163432 -0.07679454
0003f0 e8 10 41 3d 7e 4d c3 3d de 0c d6 3d 64 73 7d 3d
       0.047135264 0.09536265 0.10451673 0.061877623

feature_extractor.5.bias f4 [64]
000000 34 cd 03 3d 20 c7 c3 3c c2 91 c5 3c 8d 51 72 bd
       0.03217812 0.023898661 0.024117354 -0.059159804
000010 f6 f5 fd 3c 4b 3b ee bc f3 56 0f 3c ff c9 6a bd
       0.031001072 -0.029081007 0.008748758 -0.057321545
000020 c2 ad fe 3c b5 d9 ed 3c 1a 76 38 bd 26 46 89 bc
       0.031088714 0.029034475 -0.045034505 -0.016757082
000030 09 69 50 3d 83 57 cf ba d9 86 2d bc 1e 1e f5 bc
       0.05088142 -0.0015818927 -0.010591232 -0.029921588
000040 01 38 24 3d b4 0f 37 3d 35 90 6a bd 7b 09 5c bd
       0.040092472 0.04469271 -0.057266433 -0.05371998
000050 c8 e0 40 bd aa 5d 66 bd f7 1f 9d bc 98 9b 19 bd
       -0.047089368 -0.05624167 -0.019180281 -0.0375019
000060 cd 65 90 3d bb 1d da 3c ff ce b7 3c ef 66 19 3a
       0.07050667 0.026625505 0.02243757 0.0005851825
000070 52 a2 2f 3d e0 1e 28 bd ba 97 b5 bc 17 91 15 bc
       0.04287941 -0.04104507 -0.022167075 -0.00912883
000080 cc bc 9b bd db 00 82 bd 49 28 83 3c f0 3a 59 bd
       -0.076043695 -0.063478194 0.01601042 -0.053034723
000090 18 e1 8b bd 3c a1 7f bc 0e a3 0d 3d 26 c9 96 bd
       -0.068300426 -0.015602406 0.03457933 -0.07362585
0000a0 5f e6 a4 bd 9e e3 60 3d e4 9d d8 bc ae 2e be 3c
       -0.08051752 0.054904573 -0.026442476 0.023215618
0000b0 2b 37 c5 3b 5e c6 5d bd 7a ec 39 bc da 97 43 bd
       0.0060185394 -0.054144256 -0.011347884 -0.04775224
0000c0 9e 33 18 3d f8 af 61 bd 09 76 95 3d 2e d5 2e bd
       0.0371586 -0.055099458 0.07297904 -0.042683773
0000d0 c5 4e 2d bb d9 f8 78 bd 9d 07 34 3b 7d 6a a3 3d
       -0.0026444655 -0.060784195 0.0027470358 0.079792954
0000e0 be 22 45 bd 82 7d 78 3d 6c fa b9 3c 62 0a 14 bd
       -0.048128836 0.06066657 0.022702418 -0.036142714
0000f0 7e 0b 5d bd 38 10 8a ba 28 12 af bc a5 28 54 3d
       -0.053966038 -0.0010533398 -0.021370962 0.051796574

feature_extractor.6.weight f4 [64]
000000 d6 50 40 3f 78 03 6d 3f 40 d4 24 3f 0f b4 42 3f
       0.75123346 0.9258342 0.6438637 0.76056
000010 d7 c4 2d 3f 6c 4f 38 3f b3 2f 72 3f 5d a0 51 3f
       0.6787848 0.7199619 0.94604033 0.8188532
000020 88 c1 34 3f 8d 34 5f 3f dc 3d 79 3f e7 30 52 3f
       0.70607805 0.8718956 0.97360015 0.8210587
000030 ef 1b 19 3f 89 c0 2e 3f bb 96 2e 3f 42 20 3a 3f
       0.5980825 0.68262535 0.68198746 0.7270547
000040 ee ce 33 3f 5a bd 40 3f d6 46 65 3f 48 ac 2b 3f
       0.70237625 0.7528893 0.8956121 0.67059755
000050 a1 7b 5a 3f b4 bc 3c 3f 46 39 55 3f 4d 3e 4b 3f
       0.8534489 0.7372544 0.8329052 0.7939194
000060 21 26 40 3f 84 9f 2d 3f 44 db 4c 3f b2 2d 13 3f
       0.7505818 0.67821527 0.8002207 0.574916
000070 2d bf 64 3f 8d b6 17 3f 07 09 2c 3f 76 04 35 3f
       0.8935421 0.59262925 0.67201275 0.7070993
000080 1e 0f 33 3f 91 c3 53 3f 0e c1 1b 3f c2 9d 45 3f
       0.6994494 0.82720286 0.60841453 0.77193844
000090 58 97 24 3f a9 da 67 3f 40 fd fa 3e f9 f6 32 3f
       0.6429343 0.90568024 0.4902134 0.699081
0000a0 20 9e 6a 3f ef a2 05 3f af 65 25 3f 45 7e 4d 3f
       0.9164753 0.5220174 0.6460828 0.80270797
0000b0 23 79 2a 3f f1 9d 4c 3f 95 4a 4b 3f 2f 01 54 3f
       0.6659109 0.799285 0.7941068 0.82814306
0000c0 e8 4f 5c 3f f8 58 3a 3f 36 6c 2b 3f 53 9d 4b 3f
       0.8605943 0.72792006 0.6696199 0.7953693
0000d0 f7 b2 20 3f 2c 11 55 3f 4d d2 42 3f 0b 2e 55 3f
       0.6277308 0.8322933 0.76102144 0.8327338
0000e0 de 6b 72 3f d6 69 44 3f a3 18 74 3f 93 a0 4b 3f
       0.9469584 0.7672399 0.9535009 0.7954189
0000f0 d1 ac 38 3f bc bb 5a 3f d1 cb 7c 3f f6 9e 4a 3f
       0.72138697 0.8544271 0.987485 0.79148805

feature_extractor.6.bias f4 [64]
000000 77 9c 64 bf a2 26 44 bf 07 6c 0b bf 29 84 2b bf
       -0.89301246 -0.7662145 -0.5446171 -0.66998535
000010 6c 59 23 bf d4 40 31 bf 5c 88 4e bf 6f 8d 69 bf
       -0.6380832 -0.69239545 -0.8067682 -0.91231436
000020 5d 10 56 bf 0a 64 57 bf b1 33 71 bf 38 a0 4c bf
       -0.8361872 -0.8413702 -0.942195 -0.79931974
000030 00 64 1c bf 23 ad 2e bf 2b 8a 32 bf b5 6a 2f bf
       -0.6109009 -0.68232936 -0.6974208 -0.68522197
000040 64 48 1b bf 45 94 3f bf 8f 3e 53 bf 00 b0 34 bf
       -0.60657334 -0.74835616 -0.8251733 -0.70581055
000050 25 9c 15 bf dd 55 34 bf 3c a9 6a bf ed 1b 2a bf
       -0.5844138 -0.70443517 -0.9166448 -0.6644886
000060 6c 27 26 bf b7 d0 42 bf 58 3b 21 bf 74 a9 25 bf
       -0.64903903 -0.76099724 -0.62981176 -0.6471169
000070 39 5c 0e bf 40 6b 48 bf 74 84 26 bf 70 46 52 bf
       -0.5560947 -0.7828865 -0.6504586 -0.8213873
000080 a9 31 49 bf 91 d1 37 bf 9e f9 3f bf e9 3c 36 bf
       -0.785914 -0.7180415 -0.7499026 -0.7118669
000090 46 91 25 bf b7 85 67 bf 14 13 55 bf 48 26 66 bf
       -0.64674795 -0.9043841 -0.83232236 -0.8990216
0000a0 fe b6 4c bf cc 80 f5 be 9c 03 31 bf 31 a7 43 bf
       -0.79966724 -0.47949827 -0.6914613 -0.7642699
0000b0 a9 60 2a bf 07 ff 6f bf a6 b9 38 bf 6b 61 56 bf
       -0.6655374 -0.93748516 -0.7215828 -0.837424
0000c0 cd b8 6a bf 5f 47 2d bf 39 09 5c bf 96 1b 44 bf
       -0.91688234 -0.6768703 -0.8595157 -0.7660459
0000d0 c1 df 54 bf 35 fd 0f bf a1 99 04 bf 93 74 44 bf
       -0.8315392 -0.5624574 -0.5179692 -0.7674038
0000e0 ab 39 48 bf 2a c4 0f bf 66 7a 50 bf fa e1 5f bf
       -0.78212994 -0.561587 -0.81436765 -0.8745419
0000f0 2d 1d 45 bf 2d d1 3f bf 2e e8 43 bf b9 6f 5d bf
       -0.76997644 -0.7492855 -0.76526153 -0.864986

feature_extractor.6.running_mean f4 [64]
000000 48 47 91 be 96 62 84 c0 93 cd 18 c0 3f 6d 52 c0
       -0.28374696 -4.1370344 -2.3875473 -3.2879179
000010 22 9f a0 bf 56 07 fb bf 1c 13 7b c0 42 ce 1d c0
       -1.2548563 -1.9611614 -3.9230413 -2.465714
000020 6e 1b 03 c0 ef 29 97 c0 c4 fb a2 c0 bf 90 3d c0
       -2.0485492 -4.723869 -5.093233 -2.9619596
000030 2a 4e 1d c0 f3 35 1b c0 62 a7 8b bf e0 14 0c c0
       -2.4578958 -2.4251678 -1.0910456 -2.188774
000040 0e ea e1 bf e6 1a 24 c0 3b 95 6a c0 63 d9 52 bf
       -1.7649553 -2.5641418 -3.6653583 -0.82362956
000050 24 99 39 c0 74 2f 29 c0 49 40 0d c0 36 7c 64 c0
       -2.899972 -2.6435213 -2.2070487 -3.5700812
000060 65 11 35 c0 ff e2 81 c0 54 b2 7b c0 6e fe 16 3d
       -2.8291867 -4.0589595 -3.9327593 0.036863737
000070 af 4b 38 c0 e6 2f 51 c0 c9 7d 87 bf 9e 99 e5 bf
       -2.8796194 -3.2685485 -1.0585262 -1.7937505
000080 11 4c 79 c0 21 66 5c c0 25 86 29 c0 4e 29 43 c0
       -3.8952677 -3.4437335 -2.6488125 -3.049396
000090 76 21 19 c0 d0 68 9c c0 d9 a5 12 bf 22 58 9b bf
       -2.3926673 -4.8877945 -0.57284313 -1.2136271
0000a0 3c 13 81 c0 74 88 35 c0 ac 5c 37 c0 c4 1c 54 c0
       -4.033598 -2.8364534 -2.8650312 -3.3142557
0000b0 d8 69 95 bf c0 56 35 c0 dd 27 33 c0 65 e9 83 c0
       -1.1672926 -2.8334198 -2.799308 -4.1222405
0000c0 c4 8f 0b c0 79 a1 4a c0 59 b3 66 3f b7 60 11 c0
       -2.1806498 -3.1661055 0.9011741 -2.271528
0000d0 77 f8 67 c0 63 15 01 c0 06 f0 18 c0 e6 a3 1c c0
       -3.62454 -2.0169303 -2.3896499 -2.4475036
0000e0 3f c8 84 c0 d1 86 ac bf 80 57 7f c0 31 fb 4d c0
       -4.149444 -1.3478643 -3.9897156 -3.2184565
0000f0 3e 07 81 c0 7e ff 82 c0 95 fa 5d c0 c2 5d b4 bf
       -4.032134 -4.093688 -3.4684193 -1.4091113

feature_extractor.6.running_var f4 [64]
000000 54 ba af 40 f4 0d 7c 41 5e 5e d5 40 ac 91 18 41
       5.491495 15.753407 6.6677694 9.535564
000010 00 09 ec 40 1e fb 9d 40 4b fd 75 41 d7 65 0a 41
       7.3760986 4.936904 15.374339 8.649863
000020 bd 4e 9b 40 06 f5 65 41 10 07 7b 41 fc 93 14 41
       4.8533616 14.37232 15.689224 9.286129
000030 61 2e ca 40 76 8a d7 40 94 ee dc 40 5b 24 fc 40
       6.3181615 6.735652 6.9041233 7.879438
000040 8f 7a 0c 41 b6 4d 61 41 b2 83 23 41 c9 e5 05 41
       8.779922 14.081472 10.219652 8.3686
000050 2d 05 57 41 a4 e0 95 40 f8 4e f3 40 da 33 09 41
       13.438764 4.683672 7.6033897 8.575159
000060 66 8c eb 40 d0 15 12 41 bf 22 58 41 dc 05 68 40
       7.3608885 9.130325 13.508483 3.6253576
000070 55 23 3d 41 f0 20 a6 40 b7 49 e9 40 75 61 6c 40
       11.821126 5.1915207 7.2902484 3.6934483
000080 ea 9d c6 40 90 f3 25 41 b7 40 9b 40 2e 53 eb 40
       6.2067766 10.3719635 4.8516498 7.353904
000090 85 5b aa 40 59 27 6f 41 3f 36 28 40 61 78 87 40
       5.323672 14.947106 2.628311 4.2334447
0000a0 cb 61 29 41 cc fd c1 40 83 a9 dc 40 1a 1a 5f 41
       10.586375 6.062231 6.8956923 13.943872
0000b0 09 28 ae 40 56 56 b2 40 92 cf 10 41 49 7f 0d 41
       5.442387 5.573039 9.050676 8.8435755
0000c0 e9 f8 9c 40 8f 25 fe 40 de 26 6e 40 47 38 fc 40
       4.9053845 7.942085 3.7211223 7.88187
0000d0 9b 45 ae 40 20 ee 46 41 f1 50 27 41 b1 00 33 41
       5.4459968 12.433136 10.457261 11.187669
0000e0 91 b4 56 41 2f 0b 2c 41 06 88 7c 41 ca 07 e7 40
       13.419084 10.75273 15.783209 7.219701
0000f0 e2 1c 03 41 05 ce 34 41 b9 be 73 41 57 91 e7 40
       8.194551 11.300298 15.234063 7.2364917

feature_extractor.10.weight f4 [128, 64, 3, 3]
000000 7a 37 87 be 3d 23 b9 be 38 4b 9f be 68 81 06 be
       -0.26409513 -0.36159697 -0.31112075 -0.13135302
000010 90 36 db bd 7a 05 32 3a dd c9 12 3e b8 e5 dd 3c
       -0.10703766 0.0006790977 0.14334817 0.027087077
000020 a9 6b d6 3d 1c d5 51 be 13 91 9d be 84 a1 76 be
       0.10469753 -0.20491451 -0.30774745 -0.24085051
000030 63 cb a4 3e e9 99 9f 3e 0f 02 b6 3e be 11 64 3d
       0.32186422 0.31172112 0.35548446 0.055680983
000040 aa 6b 1e 3e ff 71 f7 3d 04 52 57 3d 14 de e3 bd
       0.15470758 0.1208229 0.05256845 -0.111263424
000050 1c 75 5b 3b a0 f5 03 3d ed 81 eb 3c 0a 5e 67 3e
       0.003348655 0.032216668 0.028748477 0.22594467
000060 b0 e1 aa 3c af 65 9e 3c 22 10 fe 3d 32 2f 03 be
       0.02085957 0.019335596 0.12405421 -0.12810972
000070 a2 50 ad bd a2 1b 68 bd b6 b6 21 3e 37 cb 8d bd
       -0.08462645 -0.056666978 0.15792355 -0.06923526
000080 20 48 84 bd 6b 85 c4 bd 21 f7 aa bd 86 d3 ae bd
       -0.06459069 -0.0959576 -0.08347917 -0.08536439
000090 34 1f 96 3e 87 8f 1d be 03 d1 83 bb 0f 41 8a 3e
       0.2932068 -0.15386783 -0.004022719 0.2700276
0000a0 4d ba 87 bd 54 d9 1c 3d 50 08 8d 3d a5 16 5f 3d
       -0.06627331 0.038293198 0.06886351 0.054464955
0000b0 31 b9 c5 bd e9 1c 9e 3d b8 9b 06 be 8b 4f 68 bd
       -0.09654463 0.07720358 -0.1314534 -0.056716483
0000c0 f6 10 a3 3d 39 48 e8 bd 8d 5f d2 3d 1e 09 55 3d
       0.079622194 -0.113419004 0.10272131 0.052010648
0000d0 d8 4d 0c be cd 23 50 3d 3d e9 49 3d 83 60 d7 3d
       -0.1370157 0.050815392 0.0492947 0.10516455
0000e0 7f 7c c8 3d f4 9e 01 3e a0 67 3e 3e f0 bb a5 3d
       0.09789371 0.12658292 0.18594217 0.08092487
0000f0 4b a0 06 be 6a 80 34 be f8 b4 8c be 71 66 1c 3e
       -0.13147084 -0.17627111 -0.27481818 0.15273453
000100 ba a5 31 3e 37 06 41 3e d4 e3 b9 3d 74 33 e7 3c
       0.17348376 0.18850027 0.09076658 0.028222777
000110 5e 11 55 3d 9e 48 42 3d be ab 95 bd 92 3a 03 bd
       0.052018516 0.047432534 -0.07308148 -0.03203828
000120 a8 92 fc bd 2d d2 96 bd f6 aa 4a be 6c af 8c bd
       -0.1233266 -0.073643066 -0.19791779 -0.068693966
000130 ae c4 97 bd 40 19 e5 bd a3 c3 e3 bd 4a a9 a9 bd
       -0.074105605 -0.11186457 -0.11121299 -0.082842425
000140 19 50 4f 3d 37 8e c5 be b5 0d 8c be 48 01 91 be
       0.050613496 -0.38585064 -0.27354208 -0.2832129
000150 72 e2 49 3d 61 9c d1 3c 19 c0 50 3e 09 4d 1a bd
       0.04928822 0.025587263 0.2038578 -0.037671123
000160 b7 65 0e be e1 a2 9d be bb bc f1 3c 96 1c a5 be
       -0.13905989 -0.3078833 0.029508939 -0.32248372
000170 8a 96 d5 bb da 93 44 3e 1d 07 8b 3d 5c ff b0 3e
       -0.00651819 0.19197026 0.06788466 0.34569824
000180 2a da 38 be 47 20 28 be 5a c9 42 be ca f4 d2 3d
       -0.18051973 -0.16418563 -0.19022122 0.10300596
000190 c6 92 a1 3c b5 2a c4 3d 4d da 85 3e 5a 86 f5 3d
       0.019723307 0.09578458 0.26143113 0.11988516
0001a0 de 74 a0 bd 72 44 1f 3e 30 40 b5 3d da d6 32 be
       -0.07834791 0.15553454 0.088501334 -0.17464772
0001b0 bc 2f a7 3d 98 f7 85 3d 82 fe c6 3d 8a 1c f5 3d
       0.081634015 0.065413654 0.09716512 0.11968334
0001c0 27 e6 c2 3c db cf 26 3e 23 f8 34 bd 80 67 89 3d
       0.023791386 0.16290228 -0.044181954 0.06709194
0001d0 87 f2 af 3d 42 0a d9 3d 87 5f 4f 3d 59 91 57 3e
       0.0859118 0.1059766 0.05062821 0.2105154
0001e0 6b 5c a2 bd 40 ab 85 bd cb a5 07 3e fe 43 de 3c
       -0.079277836 -0.06526804 0.13246839 0.02713203
0001f0 c2 a6 57 3d ce a8 be 3d 5c 60 02 3d 18 22 96 bd
       0.052649267 0.09309541 0.031830177 -0.073307216
000200 9c 69 90 bc 91 6f 74 3c b4 e4 f4 3c 6b 8e 5b 3d
       -0.017628483 0.014919178 0.02989421 0.053602617
000210 4f 09 93 3c 8f 01 83 3c 59 51 f0 3d 0d 7c 88 3c
       0.017948775 0.015991954 0.11734266 0.016660715
000220 ef 4c 4d 3d ef 86 8e bd 8b 95 77 bd 6e 2d 7d bb
       0.050122198 -0.0695933 -0.06044535 -0.0038631815
000230 85 aa 0b be d8 9a 12 be 49 99 1a be 21 aa c3 be
       -0.13639267 -0.1431688 -0.15097536 -0.38215736
000240 8b 16 dc 3d 18 c0 0b bd 4e 6f 83 3c e6 aa 13 3e
       0.10746487 -0.03411874 0.016044285 0.14420661
000250 64 3c e0 3d 2a 2e 16 3e 32 62 8c 3e 91 be 04 3e
       0.109490186 0.14666048 0.27418667 0.1296332
000260 24 fe 5b 3e d9 13 9c bd c3 9c 70 bd 6a 2e 4f bd
       0.21483666 -0.07620973 -0.05874325 -0.050581373
000270 78 7d 42 3e 90 54 43 3e 8d 67 54 3e 87 10 0c 3d
       0.18993175 0.19075227 0.20742626 0.03419545
000280 1b c6 85 bd f6 14 22 3e b7 73 16 be 49 7a 7f be
       -0.06531926 0.15828308 -0.14692579 -0.24948992
000290 ed 90 12 be 8f 07 42 3d 87 2c 5a 3d e3 dc 93 bd
       -0.14313097 0.04737049 0.05326512 -0.07219865
0002a0 a4 f9 cb bd 8e 32 2b bc 79 45 e6 bd b5 bb b7 bb
       -0.099597245 -0.010449065 -0.112437196 -0.005607093
0002b0 f8 67 98 bc 95 12 7f 3d 74 64 a9 3c ef a4 1b 3d
       -0.018604264 0.06227358 0.020677783 0.03799909
0002c0 56 d8 0a 3e a7 8a f1 bd 66 5f ec bd 53 f6 49 3b
       0.13559088 -0.11794024 -0.11541633 0.0030816987
0002d0 fe 6b 44 3e e0 f5 08 3e 6b 69 5e 3e 1a a1 71 3d
       0.19181821 0.13375044 0.21719901 0.05899153
0002e0 8f c7 34 39 58 d9 87 3d 19 8f 91 bd e9 5e d0 3c
       0.00017240479 0.06633252 -0.07107372 0.025435882
0002f0 0a ef 6a 3e 88 16 e8 3d 09 47 8a bd a6 ec 0a be
       0.22942749 0.113324225 -0.0675183 -0.13566837
000300 bc 00 ac 3e 67 85 b1 3d 66 11 20 bc cf b5 78 3e
       0.3359431 0.086680226 -0.009769773 0.24288104
000310 53 48 59 3d 00 85 9c bc 23 23 3c 3d 7c a6 a2 3d
       0.05304749 -0.019106388 0.045931946 0.079419106
000320 a8 6d 04 be 0d 84 01 3e 66 f0 91 3d 0a d6 1d bc
       -0.12932456 0.1264803 0.071259305 -0.00963355
000330 69 13 55 be 61 75 86 be 6b dc 9a be 51 75 66 3d
       -0.20808186 -0.26261428 -0.3024629 0.056264225
000340 f1 7f d1 bd c5 18 16 bd b8 d6 33 be be 20 c3 bd
       -0.10229481 -0.036644716 -0.17562377 -0.095277295
000350 43 7b a6 bd f1 51 1d bc 3a 22 b2 3d 95 60 65 3e
       -0.08128979 -0.009602056 0.086979344 0.22400124
000360 c2 4a 00 be 19 7b 41 be fd 0c 06 be dc 17 27 be
       -0.12528518 -0.18894614 -0.13090892 -0.16317695
000370 3c 8a 35 be c7 1d f5 bd a3 63 e9 3d b9 b8 84 3d
       -0.17728513 -0.1196857 0.11395957 0.064805456
000380 3a 2f 30 3d 51 68 05 3d c3 3b 97 bd aa 6c 08 3e
       0.04301379 0.032570187 -0.073844455 0.13322702
000390 c5 a0 41 be 13 8f 8e be 24 6c 05 be 2f 07 10 be
       -0.18908985 -0.27843532 -0.13029534 -0.1406524
0003a0 73 75 7b be 34 9f 27 be 09 d8 59 3d b1 22 ef 3d
       -0.24556522 -0.16369325 0.053184543 0.11676539
0003b0 7b b4 a6 3e a1 44 ac 3d 0e ef 5a 3d 40 3c bb 3d
       0.3255957 0.084115274 0.053450637 0.09142351
0003c0 40 ca 18 be 0e 2a 26 be 6e bc 16 be b1 27 50 bd
       -0.14920902 -0.1622698 -0.14720318 -0.050819103
0003d0 96 ef 08 bd 3b c6 d2 bc 42 1e 2a be dc 87 34 3b
       -0.033431612 -0.02572929 -0.16613105 0.0027546799
0003e0 18 66 94 bc f5 1d 28 be 42 bb 32 be ff 04 6d bd
       -0.018115088 -0.16417678 -0.17454246 -0.057866093
0003f0 cf c2 a7 3e e0 ce bb 3d 16 03 9f 3e 0b 4f a5 3d
       0.32765815 0.09170318 0.31057042 0.08071717

feature_extractor.10.bias f4 [128]
000000 f9 03 08 bd 9b 8c ae bd f4 b0 dd 3c 29 96 e5 bc
       -0.033206914 -0.08522912 0.027061917 -0.028025704
000010 6c c2 0c bd de ea 6e 3c bf e0 c8 bc 7f 47 49 bd
       -0.034365103 0.014582364 -0.02452123 -0.04914045
000020 92 79 5c bc d2 eb 11 3c 18 69 54 3c a6 a7 96 bd
       -0.013456719 0.008906322 0.012964509 -0.07356195
000030 e5 f9 76 bd 65 12 ea bc 56 34 9f bc b9 49 d2 3c
       -0.06029691 -0.028573224 -0.019434135 0.02566992
000040 ec 42 83 bc 97 91 da bc 0d 80 a5 bc cb 31 3b bc
       -0.016023122 -0.02668075 -0.020202661 -0.011425446
000050 94 a1 e4 3c 1b 14 6d bd c9 bf b0 bc 56 ac 44 bd
       0.027909078 -0.057880502 -0.021575825 -0.048015915
000060 09 84 04 bc 90 ff d8 3b 23 83 6e bd d9 d7 a6 bd
       -0.00808812 0.0066222623 -0.05823053 -0.081466384
000070 3b 52 f4 bb c2 26 0d bb b8 c4 c6 bc 32 36 04 bd
       -0.0074560917 -0.0021537994 -0.024263725 -0.032278247
000080 cc cf a4 bd 8a 56 42 bd ee b1 b5 3c 07 9f 5a bc
       -0.080474466 -0.04744581 0.02217957 -0.013343579
000090 18 df 35 bd 49 31 d0 3c a8 f9 14 bd 14 90 10 3d
       -0.044402212 0.025414126 -0.036370903 0.035293654
0000a0 20 0f a4 bc 37 32 00 bc ed 5d 80 bd 4b 92 62 bd
       -0.020026743 -0.007824472 -0.06267915 -0.055315297
0000b0 c1 9c 6c bd 09 8d a1 bc 7e 7c d9 bc 75 5b ac 3a
       -0.05776668 -0.019720571 -0.02654862 0.0013149815
0000c0 42 d8 e2 bc c9 a8 ab 3c 0c 87 3c bd e6 db 5a 3c
       -0.02769101 0.020954506 -0.04602723 0.013358092
0000d0 2b a9 5a 3c 1a 82 d9 bc aa f9 24 bc 5a ea 34 bd
       0.013345997 -0.026551295 -0.01006929 -0.044168808
0000e0 56 95 52 3d 55 99 05 bd 4e 9d 1e bd 38 ba a3 bd
       0.05141195 -0.032616932 -0.038724236 -0.07994503
0000f0 ab 14 86 bc f6 66 a3 bd 2c 95 35 bc 83 23 dd bc
       -0.016367277 -0.079786226 -0.011082929 -0.026994472
000100 52 4a 90 bd 2a 7c 90 bd 8b b5 83 bd 44 32 90 bd
       -0.070454255 -0.070549324 -0.06431111 -0.070408374
000110 73 87 4b bd 03 d2 19 bd aa a9 85 bc 83 a7 22 ba
       -0.04968972 -0.0375538 -0.016316254 -0.0006204771
000120 6e 45 5a bc 6d e8 c6 bd e5 b2 6b bd 27 ce 0c bd
       -0.013322217 -0.097123004 -0.057543654 -0.03437629
000130 91 1e 8b bd 5f 94 f0 bc cb 50 c6 3b a7 41 d6 bc
       -0.067929395 -0.029367624 0.0060521117 -0.026154352
000140 30 0a e9 3c a7 03 e4 bc d3 b4 2c 3c 6c 3b f2 3c
       0.02844724 -0.027833773 0.010541159 0.02956935
000150 f4 8b fb bc 8f 5e c7 bc b5 b8 f0 bc 93 eb 35 bd
       -0.030706383 -0.024337081 -0.02938495 -0.044414114
000160 84 aa 9f bc 1f 7a 04 bd a2 34 03 bd 60 04 ee bc
       -0.019490488 -0.032343026 -0.032032616 -0.02905482
000170 7b 15 a5 bc 4e 2f 79 bc bb 24 11 bd bf 13 66 bc
       -0.020151844 -0.015209032 -0.03543542 -0.014042794
000180 a7 3d fa 3b e6 a2 bf bc ea d4 f6 3a 67 6e df 3a
       0.007636744 -0.023393106 0.0018831764 0.0017046452
000190 4b 01 75 bd 4b b3 74 bd 85 ae 2b bd 04 8f 6f bd
       -0.059815686 -0.0597413 -0.04191448 -0.058486
0001a0 8c e1 98 ba 88 21 18 bd 02 12 fd bc fd 14 28 bc
       -0.0011663898 -0.037141353 -0.030892376 -0.01025891
0001b0 bf e4 13 3c 03 e5 ef 3c e5 fa ac bc f4 10 29 bd
       0.009026705 0.029284006 -0.02111573 -0.041275933
0001c0 19 36 fa bc eb 52 2a bd e5 36 7a bb ad 0a 89 3c
       -0.030543374 -0.041582983 -0.0038179692 0.016728723
0001d0 1a a8 1d bd ee 99 54 3c 04 7f 72 3c 99 a4 b3 bd
       -0.038490392 0.012976153 0.014800791 -0.08771629
0001e0 d5 df 52 3c fd ac 68 bd c1 36 bd bc 00 d2 84 bd
       0.0128707485 -0.0568056 -0.023097398 -0.06485367
0001f0 ec c3 24 bd a0 be 7f bc 58 b2 01 bd b5 13 27 3b
       -0.04022591 -0.015609413 -0.031664222 0.0025493924

feature_extractor.11.weight f4 [128]
000000 77 2b b5 3f 47 10 d4 3f 25 10 c9 3f df ba df 3f
       1.415389 1.6567467 1.5708052 1.7478904
000010 60 a5 bb 3f 76 23 23 40 41 9b c2 3f 23 e1 bd 3f
       1.4659843 2.5490394 1.520363 1.4834331
000020 5f d8 cd 3f 8d f8 e4 3f e3 57 e8 3f ad 9d d4 3f
       1.6081656 1.7888352 1.8151821 1.6610619
000030 af 87 e6 3f be 07 e4 3f 61 1f b3 3f 4a eb cc 3f
       1.8010157 1.7814863 1.3993951 1.6009305
000040 b1 21 cf 3f 79 5c d6 3f fb 37 10 40 1b db da 3f
       1.6182157 1.674697 2.2534168 1.7098116
000050 c9 98 e9 3f bc 6a 03 40 a8 8a de 3f 3c 27 db 3f
       1.8249751 2.0533895 1.7386065 1.7121348
000060 7e 84 cc 3f 92 7f d0 3f ed a8 d4 3f 57 2f e3 3f
       1.5977933 1.6288931 1.6614052 1.7748822
000070 d2 aa d3 3f 70 fa 19 40 7e 8e d7 3f c8 56 06 40
       1.6536505 2.4059105 1.684036 2.0990467
000080 72 60 cc 3f 9e b1 db 3f 07 d5 f6 3f ad f1 bf 3f
       1.5966933 1.716358 1.9283761 1.4995629
000090 ed b6 dd 3f c5 90 d0 3f 6c 7d d5 3f 59 8e dc 3f
       1.732145 1.629418 1.6678901 1.7230941
0000a0 25 19 ff 3f 24 e3 ea 3f ce 7f be 3f d3 a8 d6 3f
       1.9929549 1.8350568 1.4882753 1.6770271
0000b0 eb 04 c0 3f cb a8 b9 3f b9 e5 02 40 3e 33 26 40
       1.5001501 1.4504637 2.0452712 2.5968776
0000c0 63 9a c2 3f 48 55 e2 3f d6 64 d0 3f 8d 82 d7 3f
       1.5203365 1.7682276 1.6280773 1.6836716
0000d0 d9 ce ce 3f 3b aa e7 3f 49 bc de 3f c5 50 c0 3f
       1.6156875 1.8098825 1.740121 1.5024649
0000e0 1a 06 c0 3f 00 b1 c7 3f e0 b3 ca 3f d9 c5 d4 3f
       1.5001862 1.5600891 1.5836143 1.6622878
0000f0 bb 79 d9 3f 29 6c dc 3f 11 9a d5 3f 99 77 e1 3f
       1.6990274 1.7220508 1.6687642 1.7614623
000100 c3 79 ea 3f b2 a9 d8 3f 2b f1 eb 3f f0 ab d0 3f
       1.8318409 1.6926787 1.8432974 1.6302471
000110 f7 fd c6 3f 50 70 d1 3f 59 dc cb 3f be 10 c0 3f
       1.5546254 1.63624 1.592662 1.5005109
000120 31 83 c9 3f c6 ad d1 3f b1 9d ce 3f 2a d1 e9 3f
       1.5743161 1.6381156 1.6141874 1.8266957
000130 ac e3 b4 3f d0 f2 f0 3f 02 bd ee 3f 14 31 d3 3f
       1.413198 1.88241 1.8651431 1.6499352
000140 80 48 10 40 fb be cf 3f 05 7b cc 3f c3 e2 e7 3f
       2.254425 1.6230158 1.5975043 1.8116077
000150 64 e0 d2 3f 29 2d e1 3f c8 5a d9 3f 51 cf dd 3f
       1.6474729 1.7591907 1.6980829 1.7328893
000160 97 d9 d4 3f 96 1b b7 3f 9d ca e6 3f 66 8f db 3f
       1.6628903 1.4305294 1.8030583 1.7153137
000170 19 cc d3 3f 72 ef f4 3f 11 33 c3 3f fb 48 cf 3f
       1.6546661 1.9135573 1.5249959 1.6194147
000180 86 3e c5 3f 78 9c d5 3f 40 a4 e0 3f f6 a3 0e 40
       1.5409706 1.6688375 1.7550125 2.2287574
000190 7e eb 15 40 8e ac da 3f e9 cc c7 3f f2 38 de 3f
       2.3424983 1.708391 1.5609409 1.7361128
0001a0 1f 68 04 40 71 52 f1 3f 7b 80 00 40 ca f0 bb 3f
       2.068855 1.8853284 2.0078418 1.4682858
0001b0 99 24 bf 3f 58 b5 ba 3f b8 15 c0 3f 2e 83 07 40
       1.4933044 1.4586592 1.5006628 2.1173816
0001c0 09 51 cf 3f da a2 e1 3f f9 8e c7 3f 7e da e4 3f
       1.6196605 1.7627823 1.5590507 1.7879179
0001d0 82 07 03 40 88 0d f6 3f e4 a0 0e 40 4d e6 c6 3f
       2.0473332 1.922288 2.22857 1.5539032
0001e0 15 0e ca 3f 58 1e c8 3f 69 a8 0a 40 66 dc cc 3f
       1.5785547 1.563426 2.166529 1.600476
0001f0 11 28 ec 3f f0 31 de 3f 71 c7 cd 3f a8 1c e1 3f
       1.8449727 1.735899 1.607649 1.758687

feature_extractor.11.bias f4 [128]
000000 b3 8b 45 bf 30 91 75 bf ec 91 85 bf fc 94 59 bf
       -0.7716629 -0.95924664 -1.0435157 -0.8499296
000010 4e 6b 6c bf 48 39 24 bf 43 c2 59 bf 41 65 4e bf
       -0.92351234 -0.64149904 -0.85062045 -0.8062325
000020 2a 12 53 bf 36 96 36 bf f3 65 2e bf 71 a6 84 bf
       -0.8244959 -0.71322954 -0.6812431 -1.0363294
000030 d5 dd 7b bf 01 3a 59 bf 31 8f 64 bf a9 0f 61 bf
       -0.98385364 -0.8485413 -0.8928099 -0.8791452
000040 f0 4c 60 bf 44 0b 3e bf 2a 81 f8 be 29 dc 89 bf
       -0.876174 -0.7423594 -0.48536044 -1.0770313
000050 2b 8d 37 bf 15 35 49 bf 27 e3 2d bf 56 79 24 bf
       -0.7169978 -0.7859662 -0.6792473 -0.64247644
000060 a2 d5 38 bf 38 a3 56 bf 0c 66 73 bf 52 c3 4e bf
       -0.7220098 -0.838428 -0.95077586 -0.80766785
000070 78 e9 5e bf 8c cd 2c bf cd bd 87 bf 13 a6 e2 be
       -0.87074995 -0.6750114 -1.0604798 -0.4426733
000080 0a 8a 80 bf b1 32 7d bf 9d 9a 62 bf a3 99 54 bf
       -1.0042126 -0.98905474 -0.8851717 -0.8304693
000090 75 2b 3b bf 8c 18 66 bf db 28 3c bf 66 60 87 bf
       -0.73113185 -0.89881206 -0.7349984 -1.0576293
0000a0 1a 6f 77 bf bb 59 33 bf b0 67 8c bf 99 60 59 bf
       -0.966539 -0.7005879 -1.0969143 -0.8491302
0000b0 9d 6c 61 bf 97 24 55 bf 41 ec 84 bf 9a 34 33 bf
       -0.88056356 -0.83258957 -1.0384599 -0.7000214
0000c0 e0 e7 5b bf ba 76 69 bf cf 63 56 bf 62 7f 4d bf
       -0.8590069 -0.9119679 -0.83746046 -0.80272496
0000d0 93 6a 41 bf 2f 50 70 bf 0a 0a a0 bf f4 b1 4b bf
       -0.75553244 -0.9387235 -1.2503064 -0.7956841
0000e0 88 14 78 bf 5b bd 5c bf 9a a1 69 bf 57 97 5f bf
       -0.9690633 -0.86226434 -0.9126221 -0.873403
0000f0 69 ea 62 bf 14 e1 78 bf 30 8e 66 bf 96 a0 6f bf
       -0.8863893 -0.9721844 -0.9006071 -0.9360441
000100 f2 a7 42 bf b6 8e 7a bf 08 07 61 bf ac c2 59 bf
       -0.76037514 -0.9787401 -0.87901354 -0.8506267
000110 d6 a5 22 bf d1 fc 39 bf ad 9a 78 bf 31 f8 43 bf
       -0.63534296 -0.7265139 -0.97111017 -0.76550585
000120 75 fa 51 bf b7 3c 85 bf e6 0c 1f bf dd a0 50 bf
       -0.8202279 -1.0409154 -0.62129056 -0.8149546
000130 32 44 62 bf 76 10 45 bf 01 53 3f bf af e2 76 bf
       -0.8838531 -0.7697824 -0.7473603 -0.9643964
000140 fa 4f 9a be ef c2 6b bf a9 ff 5f bf a6 03 ff be
       -0.30139142 -0.9209432 -0.8749948 -0.4980747
000150 2c c9 65 bf 1f 82 3f bf 29 8d 55 bf 16 54 7a bf
       -0.8976009 -0.74807924 -0.8341852 -0.97784555
000160 78 b9 66 bf fe dc 80 bf ec 2f 52 bf 2c 6c 45 bf
       -0.9012675 -1.0067441 -0.8210437 -0.7711818
000170 dc f6 81 bf 3b 9c 2f bf b3 be 88 bf 4f f7 82 bf
       -1.015346 -0.68597764 -1.0683197 -1.0231723
000180 e4 0a 55 bf 59 da 4f bf 96 66 4d bf 8c 7e bb be
       -0.8321974 -0.8119255 -0.8023466 -0.36619985
000190 d7 69 20 bf 97 4d 4d bf fd 14 5c bf 84 95 63 bf
       -0.626615 -0.8019652 -0.85969526 -0.8890002
0001a0 4f 40 7d be 12 1c 3c bf 8f 78 42 bf 46 0f 52 bf
       -0.24731563 -0.7348033 -0.7596521 -0.82054555
0001b0 1e da 88 bf bb b9 6c bf 65 52 81 bf c4 37 4f bf
       -1.0691564 -0.924709 -1.010327 -0.80944467
0001c0 aa 7f 4e bf 02 4a 5e bf ca f2 4e bf 8e 5c 74 bf
       -0.8066355 -0.86831677 -0.80839217 -0.9545373
0001d0 5f 0a 34 bf c8 e8 51 bf 65 66 e9 be 57 b4 90 bf
       -0.70328325 -0.8199582 -0.45585933 -1.1305035
0001e0 11 be 44 bf 6a 4e 5c bf 12 06 1f bf 42 b4 80 bf
       -0.7685252 -0.8605715 -0.6211864 -1.005501
0001f0 7b 36 71 bf cd 39 72 bf c8 b4 5e bf 68 f3 6a bf
       -0.94223756 -0.94619447 -0.869946 -0.9177766

feature_extractor.11.running_mean f4 [128]
000000 44 27 07 be 66 db 05 bf d2 59 59 be ed 18 cf 3d
       -0.13198572 -0.522879 -0.2122567 0.10112176
000010 02 0a 5f bf fa f1 47 be f5 ff 49 bf 33 e3 75 bf
       -0.87124646 -0.195259 -0.78906184 -0.96049803
000020 6c 58 8d bd 0f c1 15 bf 2a 97 89 3d 96 e0 dd be
       -0.06901631 -0.5849771 0.067182854 -0.43335408
000030 0d 70 1c be c4 f1 22 bf 0e 1e 88 bf c4 55 3d bf
       -0.15277119 -0.63650155 -1.0634172 -0.7395899
000040 fd a7 a4 3e 1a 16 1e bf 55 83 30 bf de 21 8e be
       0.32159415 -0.61752474 -0.68950397 -0.27760214
000050 38 6a 83 bd bf 44 df 3d 52 a5 48 bd 2d 46 71 be
       -0.06416744 0.10901784 -0.048985787 -0.23561926
000060 7e 1e f7 3d 67 e1 ed bd b0 58 0d bf 48 c2 7a bf
       0.12066363 -0.11615258 -0.5521345 -0.979527
000070 f4 2c 60 bf ab b4 41 3d ba a9 37 bf f0 6c a0 be
       -0.87568593 0.04729144 -0.7174336 -0.31333113
000080 3e fc c9 bd 2f d4 5b bf 53 d6 7c bf 49 4c dd be
       -0.098625645 -0.8587064 -0.9876453 -0.43222263
000090 be 27 ea be 5f 4b 18 bf c1 08 f5 bc 30 3f 7c bf
       -0.45733446 -0.5949001 -0.0299114 -0.98533916
0000a0 b8 40 e0 3d b4 8c 14 bf 12 cb 5d bf 96 df 43 bf
       0.10949844 -0.58027196 -0.86637986 -0.7651304
0000b0 32 3e 5a bf 45 f0 9c bd b8 c2 07 3d e1 60 5a be
       -0.8525115 -0.07663015 0.033144683 -0.21326019
0000c0 91 04 28 bf d3 f6 1b bf 9f 68 5a be 6b 20 2a bf
       -0.6563197 -0.609235 -0.21328972 -0.66455716
0000d0 d1 f3 05 bf 2b a4 19 be ca ad 88 be 71 2d 51 bf
       -0.5232516 -0.15004031 -0.2669509 -0.81709963
0000e0 54 e0 66 bf 5c ee 2d be d2 86 d2 bd 39 fd 37 bf
       -0.9018605 -0.16985458 -0.10279621 -0.7187076
0000f0 8b e6 df be fd a2 7a be db eb 63 bf 52 6e c0 be
       -0.43730578 -0.24476238 -0.8903176 -0.37584168
000100 ac 7c c6 be b1 89 ef be 4d 2f 88 be 3f 1c 41 bf
       -0.38766992 -0.46784738 -0.26598588 -0.75433725
000110 86 9e dc bd c3 7a e7 be df 0c ae bf ae 88 72 be
       -0.107724234 -0.45210847 -1.3597678 -0.23684952
000120 e3 bf 0f bf d2 00 b4 bd c1 98 a3 3e f6 4f 98 bd
       -0.5615217 -0.08789219 0.3195248 -0.07437126
000130 83 92 8a bf ce 59 fc be 27 81 24 bf ae 9d 50 bf
       -1.0825962 -0.49287266 -0.6425957 -0.814906
000140 cd 76 22 be 31 48 b9 be a1 7c 08 bf c7 d2 72 bf
       -0.15865631 -0.3618789 -0.5331517 -0.9485287
000150 d8 e5 d0 be 39 e9 06 be f4 a4 75 be ea 8d 02 bf
       -0.40800357 -0.13174905 -0.23988706 -0.50997794
000160 35 7e 1c be 0c 91 20 bf 63 9a 58 bf 03 73 14 bf
       -0.15282519 -0.62721324 -0.84610575 -0.57987994
000170 dd bf b1 3d 77 48 cc be cf d1 bf be 70 05 f9 be
       0.08679173 -0.39899036 -0.3746476 -0.4863696
000180 3d 0a c1 be 9f 73 e9 bd c4 7d fe 3e f6 d8 0d 3e
       -0.37703124 -0.11399006 0.49705327 0.13852295
000190 5f 08 8b be 91 83 a4 be 86 ae 24 bf 00 38 a2 bf
       -0.27154824 -0.32131627 -0.643288 -1.267334
0001a0 f4 a3 54 bf e4 fe 1e bf a0 17 c6 be d3 d0 20 bf
       -0.8306267 -0.6210768 -0.386899 -0.6281864
0001b0 f2 b3 79 be 0d 2c 3d be aa 23 0a bf 00 87 02 bf
       -0.2438505 -0.18473835 -0.5396067 -0.50987244
0001c0 80 f9 59 bf 15 72 6a be 7d 25 2f bf f7 6a 2c be
       -0.8514633 -0.22895081 -0.6841658 -0.16837679
0001d0 74 14 e1 bc cf c6 a8 bd 40 41 b1 be 68 f3 50 bf
       -0.027475573 -0.08241045 -0.34620094 -0.8162141
0001e0 a0 93 9f be 58 f3 22 bf 60 2b f7 bd cd 51 aa be
       -0.31167316 -0.63652563 -0.1206882 -0.33265534
0001f0 bc e7 88 3d 5b f6 2f bf 48 8a 29 bf 18 90 9e be
       0.06684825 -0.68735284 -0.66226625 -0.3096931
