models/classifier_models/best_model_mnist.bin (torch, 387362 bytes, 20 tensors)

feature_extractor.0.weight f4 [32, 1, 3, 3]
0	0x3f047873	0.5174629
1	0xbd945722	-0.07243182
2	0xbec35f54	-0.38158667
3	0x3e2361eb	0.15955321
4	0x3da421d3	0.08014264
5	0xbe975c22	-0.2956248
6	0xbd4e220a	-0.05032543
7	0x3dde78bc	0.10862872
8	0x3e4bad9c	0.19890445
9	0xbee064f0	-0.4382701
10	0xbd42e387	-0.04758027
11	0xbb6400d9	-0.0034790544
12	0xbd09e162	-0.033662207
13	0x3e88cee3	0.26720342
14	0xbd2f5dc6	-0.04281404
15	0x3ed06b69	0.40706947
16	0xbe3f502b	-0.18682925
17	0xbed15e9f	-0.40892503
18	0xbf0f158b	-0.55892247
19	0xbdf5c2b0	-0.12000024
20	0xbe0a95a4	-0.13533646
21	0xbba76149	-0.005108033
22	0xbf08b23b	-0.5339696
23	0x3e809c17	0.25119087
24	0x3deb1dc2	0.11480285
25	0xbea6982d	-0.32537976
26	0xbe9f5962	-0.3112288
27	0x3ea6ef9e	0.32604688
28	0xbe3658e7	-0.17807351
29	0xbe94115e	-0.289195
30	0x3d8b7f4e	0.06811391
31	0x3efff29a	0.49989778
32	0x3e5bc770	0.21462798
33	0xbe7d948b	-0.24763696
34	0xbe923fc4	-0.28564274
35	0x3e925a3e	0.28584474
36	0xbe94a48e	-0.29031795
37	0xbea59188	-0.32337594
38	0xbea59f6b	-0.3234819
39	0xbe936711	-0.2878957
40	0x3cd72139	0.026260959
41	0xbecc6058	-0.39917254
42	0x3e89b747	0.26897642
43	0x3eb58e92	0.35460335
44	0x3b6743b8	0.0035288166
45	0xbe8e839e	-0.2783479
46	0x3e9e7d09	0.3095477
47	0x3da7bedd	0.08190701
48	0x3d1a2e3e	0.037641756
49	0xbca9ef44	-0.020743974
50	0xbd8d3399	-0.06894607
51	0x3ed54211	0.41651967
52	0xbe86f6df	-0.26360223
53	0x3e9e2c07	0.30892965
54	0x3e878857	0.26471207
55	0x3b53ed6e	0.0032337564
56	0x3ea12762	0.3147536
57	0xbe0eeecf	-0.13958286
58	0xbf04e072	-0.51904976
59	0xbe75ec16	-0.24015841
60	0x3e6046e3	0.21902041
61	0x3e009f87	0.12560855
62	0x3e5bfc25	0.21482904
63	0x3eae17d8	0.34002566
64	0xbec75b52	-0.3893686
65	0xbf0d6264	-0.5522826
66	0x3eb44713	0.35210475
67	0xbe22b676	-0.15889916
68	0xbeb2727c	-0.3485297
69	0xbe45e3b2	-0.1932514
70	0xbe8ee017	-0.27905342
71	0xbe7d1647	-0.2471553
72	0x3e44b2cf	0.19208835
73	0x3e8354b7	0.2565057
74	0x3ec0b946	0.37641352
75	0x3ed52b0b	0.41634402
76	0x3d061c0f	0.032741603
77	0xbd9c176d	-0.076216556
78	0xbdf80cca	-0.12111814
79	0xbe8159cd	-0.25263825
80	0xbed6ee4d	-0.41978684
81	0x3f181d95	0.5942014
82	0x3e3cedcd	0.18450089
83	0x3edd6e4d	0.43248215
84	0xbe6545f9	-0.22389974
85	0xbdb3d70d	-0.08781252
86	0xbcbd11bc	-0.023079745
87	0xbd550f9a	-0.052016832
88	0xbee28740	-0.44243813
89	0xbd0998d2	-0.033593006
90	0xbe34bef5	-0.1765097
91	0x3e60ef60	0.21966314
92	0x3d79bf49	0.06097344
93	0x3e2fb7f4	0.17160016
94	0xbde5477a	-0.11195274
95	0xbe7ae544	-0.2450152
96	0xbe484e74	-0.19561177
97	0x3f2f8eb9	0.6857715
98	0xbeb27ead	-0.3486227
99	0x3d8b9257	0.068150215
100	0x3e2c4683	0.16823773
101	0xbec93526	-0.39298362
102	0x3d9026e8	0.07038671
103	0x3d5b9887	0.05361226
104	0xbe9e8d97	-0.309674
105	0xbe96ad25	-0.29428974
106	0xbe7474bf	-0.2387266
107	0xbe5b408d	-0.21411343
108	0xbe52fc62	-0.20604089
109	0xbec3339e	-0.38125318
110	0x3da6c7e7	0.08143597
111	0xbd98037d	-0.0742254
112	0xbe00cc71	-0.12577988
113	0x3e9a26a3	0.30107602
114	0x3ec723c0	0.38894463
115	0x3e866e09	0.26255825
116	0x3e1d216a	0.15344778
117	0xbea194f9	-0.3155897
118	0x3d1d9f84	0.038482204
119	0x3ebf0248	0.37306428
120	0xbe8a1a0e	-0.26973003
121	0xbec3ee49	-0.38267735
122	0xbef251d3	-0.47328052
123	0xbe1747e6	-0.14773521
124	0x3e8c6932	0.27424008
125	0x3bdd5656	0.006754677
126	0xbed9c3a2	-0.42532068
127	0xbe87144c	-0.26382673
128	0x3d9e86c0	0.07740545
129	0xbe996d84	-0.29966366
130	0x3e7182ef	0.23585103
131	0x3e3f64b7	0.18690763
132	0xbee4f167	-0.44715425
133	0x3d5aa580	0.05338049
134	0x3d5c627e	0.053804867
135	0xbf033b65	-0.51262504
136	0xbec0b935	-0.37641302
137	0xbe6a8fba	-0.2290639
138	0x3e16915c	0.14703888
139	0xbdfa6cd3	-0.12227788
140	0xbea4b764	-0.32171166
141	0x3e33b05b	0.17547743
142	0x3db5a0c6	0.08868556
143	0xbf1d6d81	-0.61495215
144	0x3e2d0c31	0.16899182
145	0xbd0101bd	-0.0314958
146	0xbd1ac840	-0.03778863
147	0x3e3909dc	0.18070167
148	0xbed852c9	-0.4225066
149	0xbaf9b187	-0.00190501
150	0xbd5077ad	-0.05089538
151	0xbe896399	-0.268338
152	0x3eb0ca5c	0.34529388
153	0x3e9801c8	0.2968886
154	0x3dacf475	0.08445064
155	0xbe62ff2d	-0.22167654
156	0xbe6c6886	-0.23086748
157	0xbf149ea5	-0.5805457
158	0xbe24caf6	-0.16093048
159	0xbea46c69	-0.3211396
160	0x3e3b2ded	0.18279238
161	0x3e28cfd0	0.16485524
162	0xbf09eb65	-0.5387481
163	0x3e0fe8b7	0.14053617
164	0x3eba907f	0.36438367
165	0xbe9106fd	-0.28325644
166	0xbea3cd4e	-0.31992573
167	0x3dd2ec76	0.102990076
168	0x3dded72b	0.10880884
169	0xbe8cdac7	-0.27510664
170	0xbd809679	-0.062787004
171	0xbeaa7ddc	-0.33299148
172	0xbe953f4d	-0.29149857
173	0xbf08658d	-0.53279954
174	0xbb3cd561	-0.0028813707
175	0x3df311ab	0.11868604
176	0xbdec78b5	-0.115464605
177	0x3d55f4e7	0.05223551
178	0x3e5a7cef	0.21336721
179	0x3e5c8811	0.2153628
180	0x3d8a883d	0.06764267
181	0xbe3ff462	-0.18745568
182	0xbee3cd38	-0.44492507
183	0x3e3551e0	0.17707014
184	0x3e8785d4	0.2646929
185	0xbeafcc41	-0.3433552
186	0x3e0dd87a	0.1385211
187	0xbe08aa7b	-0.13346283
188	0xbef1b051	-0.4720483
189	0x3ed8cb9a	0.42342836
190	0xbbf4eaa0	-0.0074742585
191	0x3eb8eb2e	0.36116928
192	0x3e034254	0.12818271
193	0xbf04a7e9	-0.5181871
194	0x3dc393a4	0.095496446
195	0x3e1c9778	0.15292156
196	0x3e214e94	0.15752631
197	0x3e8488ac	0.25885522
198	0x3d21713a	0.039414622
199	0x3e98ec13	0.2986761
200	0x3e1af040	0.1513071
201	0xbe6c4155	-0.23071797
202	0x3d5571ec	0.052110597
203	0xbd4b72d2	-0.049670048
204	0xbee189d5	-0.4405047
205	0xbeb430ac	-0.35193384
206	0xbec83b43	-0.39107713
207	0xbd4ecb79	-0.050487015
208	0xbe91f2f0	-0.2850566
209	0xbe6e4f88	-0.23272526
210	0xbe8d3980	-0.27582932
211	0xbe0608d8	-0.13089311
212	0x3de13af6	0.10997574
213	0xbea51bb8	-0.3224771
214	0xbc83993f	-0.016064284
215	0x3e9b66bd	0.3035182
216	0xbedeea81	-0.43538287
217	0xbb66f8e1	-0.0035243558
218	0x3dfb5b91	0.12273324
219	0xbec43823	-0.3832408
220	0x3e3f24b0	0.18666339
221	0x3ea372df	0.31923577
222	0xbedfea0c	-0.4373325
223	0xbec2b970	-0.38032103
224	0xbe0f8249	-0.14014544
225	0xbec41e2f	-0.38304278
226	0xbe8a3865	-0.2699615
227	0x3e56d39a	0.20979157
228	0x3efa04d8	0.4883182
229	0x3e98c595	0.29838243
230	0x3d9407ed	0.07228074
231	0x3d7cf6c0	0.061758757
232	0xbe4e6749	-0.20156588
233	0xbd1c5810	-0.03816992
234	0xbea48ba7	-0.32137796
235	0xbebf29fa	-0.37336713
236	0xbeaaaaa5	-0.33333316
237	0xbeb72fda	-0.35778695
238	0x3d981ec9	0.07427747
239	0x3e1956f9	0.14974584
240	0xbea2409a	-0.31689912
241	0x3e28f88c	0.16501063
242	0x3ce5bbaf	0.028043596
243	0xbe56a0cd	-0.20959778
244	0xbef8e96c	-0.48615587
245	0xbecd282e	-0.40069717
246	0x3ea25a9d	0.31709757
247	0x3dfe4ad8	0.12416619
248	0xbf0c303c	-0.547611
249	0x3e21d1d1	0.15802695
250	0x3e28e64f	0.16494106
251	0xbe98ee28	-0.298692
252	0xbda5d2e0	-0.08096862
253	0x3e8a7a78	0.2704656
254	0x3c21ee14	0.009883422
255	0xbf099682	-0.5374528

feature_extractor.0.bias f4 [32]
0	0xbc75a683	-0.014993313
1	0xbe9c14fe	-0.30484766
2	0xbe579e9d	-0.210566
3	0xbe181065	-0.14850004
4	0xbe8a30a8	-0.26990247
5	0xbe84adc7	-0.25913832
6	0x3e017a52	0.12644318
7	0x3e64148a	0.2227346
8	0x3c7c5c62	0.015402885
9	0x3e077499	0.13228072
10	0x3e23d66c	0.15999764
11	0xbe32884b	-0.17434804
12	0xbe23de0e	-0.16002676
13	0x3dc61bca	0.09673269
14	0xbe49adce	-0.19695207
15	0xbeaae5a8	-0.3337834
16	0x3df17b11	0.11791051
17	0xbd4c43f5	-0.049869496
18	0xbe8b4efe	-0.27208704
19	0xbe5c548b	-0.21516626
20	0xbd257547	-0.040395048
21	0x3e6c3c9f	0.2307
22	0x3ea846ef	0.32866618
23	0x3da5b7d6	0.080917045
24	0xbe60833e	-0.21925065
25	0x3e860fd2	0.26183945
26	0xbd8ed686	-0.06974511
27	0xbd100262	-0.035158522
28	0x3d506a95	0.050882895
29	0xbe42e474	-0.1903246
30	0xbe7a66ec	-0.24453324
31	0xbe45f6d2	-0.19332436

feature_extractor.1.weight f4 [32]
0	0x3ee4c576	0.446819
1	0x3f2b5520	0.66926765
2	0x3fa005c8	1.2501764
3	0x3f0d516a	0.55202353
4	0x3f621978	0.8832011
5	0x3eed1b26	0.46309775
6	0x3f0ec844	0.5577433
7	0x3f8cde9b	1.1005434
8	0x3f0e9651	0.55698115
9	0x3efd22df	0.49440667
10	0x3ecce54b	0.40018687
11	0x3fa61aa4	1.297688
12	0x3f13ae85	0.5768817
13	0x3f8fb207	1.1226205
14	0x3f888efe	1.0668638
15	0x3fa8dfdd	1.3193318
16	0x3edbc3af	0.42922732
17	0x3f974873	1.1818985
18	0x3f3d8163	0.74025553
19	0x3f680581	0.906334
20	0x3f749696	0.95542276
21	0x3f0d5106	0.55201757
22	0x3f533635	0.8250459
23	0x3f9b5662	1.2135737
24	0x3f9b12ed	1.2115151
25	0x3ef888ad	0.48541775
26	0x3fae8dae	1.3636987
27	0x3fa04282	1.2520297
28	0x3fa524b8	1.2901831
29	0x3f6b6292	0.9194728
30	0x3f53a1e4	0.826689
31	0x3f94fbf1	1.1639386

feature_extractor.1.bias f4 [32]
0	0xbf0ef4ce	-0.5584229
1	0xbeb7c231	-0.35890344
2	0xbeb13c4f	-0.34616324
3	0xbf8ee49c	-1.1163516
4	0xbecc6bd3	-0.39926013
5	0xbf3f9bd2	-0.7484714
6	0xbf566f21	-0.8376332
7	0xbf1701c5	-0.58987075
8	0xbf3518f4	-0.707412
9	0xbf1d4bfe	-0.6144408
10	0xbf0cb76e	-0.5496739
11	0xbf045292	-0.5168849
12	0xbf56b089	-0.8386312
13	0xbefcd359	-0.49379995
14	0xbf284c33	-0.6574127
15	0xbf0bd638	-0.54623747
16	0xbe07714c	-0.13226813
17	0xbeff8195	-0.4990355
18	0xbe9785cb	-0.29594263
19	0xbebf7af3	-0.3739849
20	0xbf35c4d9	-0.7100349
21	0xbf5b5d94	-0.85689664
22	0xbec5081d	-0.38482752
23	0xbf192e0d	-0.5983589
24	0xbf2290d3	-0.63502234
25	0xbf5ef1db	-0.8708779
26	0xbf0d5a0e	-0.5521554
27	0xbf1fc8d1	-0.62415797
28	0xbf153c64	-0.58295274
29	0xbeaad578	-0.3336599
30	0xbeb27a11	-0.34858754
31	0xbf17bbb3	-0.5927078

feature_extractor.1.running_mean f4 [32]
0	0xbe4bb6cb	-0.19893949
1	0xbb99f302	-0.0046981582
2	0x3f6ac844	0.9171183
3	0xbedc1718	-0.4298637
4	0x3eca72b6	0.39540642
5	0xbf1a5c88	-0.6029744
6	0x3c627506	0.013821846
7	0x3f9d8c31	1.2308408
8	0xbe7f25c0	-0.24916744
9	0xbd953755	-0.07285944
10	0x3dcb5986	0.099291846
11	0x3f0f55a9	0.5599008
12	0xbecfe5a0	-0.40604877
13	0x3f3d6925	0.7398856
14	0x3eaebc62	0.341281
15	0x3f5d30da	0.86402667
16	0x3e660aed	0.22465105
17	0x3f067a9f	0.52530855
18	0x3e86fd64	0.26365197
19	0x3e737946	0.23776731
20	0x3f10f8cf	0.5662965
21	0xbee51f07	-0.44750234
22	0x3f7421b6	0.9536394
23	0x3f32c888	0.69837236
24	0x3f0a17f3	0.53942794
25	0x3dac820f	0.08423244
26	0x3f4a4fc6	0.79027975
27	0x3f4184dc	0.7559335
28	0x3f4a6605	0.7906192
29	0x3e842abc	0.25813854
30	0x3e88382f	0.26605365
31	0x3f23ae99	0.6393829

feature_extractor.1.running_var f4 [32]
0	0x3e299b76	0.1656321
1	0x3decb04e	0.11557065
2	0x3f38cd01	0.7218781
3	0x3dea40c0	0.11438131
4	0x3eead616	0.4586646
5	0x3daf5f83	0.08563139
6	0x3d820477	0.06348508
7	0x3f4b50f8	0.79420424
8	0x3e972878	0.29523063
9	0x3e91919b	0.284314
10	0x3d702ea6	0.058638237
11	0x3eba5f15	0.36400667
12	0x3e549620	0.20760393
13	0x3e9e87d1	0.30962995
14	0x3eb050de	0.34436697
15	0x3f668f72	0.9006263
16	0x3d4b9d38	0.049710482
17	0x3e7ef40e	0.24897787
18	0x3e9fb415	0.3119208
19	0x3ea72b83	0.32650384
20	0x3ed4a376	0.4153096
21	0x3e83ffa5	0.2578098
22	0x3ee063fb	0.4382628
23	0x3e9bffa6	0.30468482
24	0x3f0b6715	0.54454166
25	0x3d9fbbad	0.07799468
26	0x3f035379	0.51299244
27	0x3f22d141	0.63600546
28	0x3ec5d08c	0.3863567
29	0x3e304362	0.17213205
30	0x3e945f62	0.2897902
31	0x3f28eb6b	0.6598422

feature_extractor.5.weight f4 [64, 32, 3, 3]
0	0xbec9a891	-0.39386418
1	0xbe47a624	-0.19496971
2	0xbe32b4cb	-0.1745178
3	0x3c783674	0.015149701
4	0x3d9127e6	0.07087688
5	0xbd06bbf9	-0.03289411
6	0xbd5a514b	-0.053300183
7	0xbda03186	-0.07821946
8	0xbe9cad58	-0.30601
9	0x3de7c78e	0.11317359
10	0x3de7f86a	0.11326678
11	0xbe2ffd2f	-0.17186426
12	0x3d2689ad	0.04065864
13	0xbd6cb7e3	-0.057792556
14	0xbe978cf8	-0.29599738
15	0xbe10d1f5	-0.14142592
16	0xbe437870	-0.19088912
17	0xbd8811a5	-0.066439904
18	0xbe009330	-0.12556148
19	0xbd6c5df5	-0.057706792
20	0xbe26b4dc	-0.1627993
21	0xbc1a4264	-0.009415243
22	0x3c95b9fb	0.018277159
23	0x3d32aebf	0.043623682
24	0xbe48e280	-0.19617653
25	0xbebe3246	-0.3714773
26	0xbeae90b0	-0.34094763
27	0xbd661ff9	-0.056182835
28	0xbc85db6d	-0.016339982
29	0xbe7584d0	-0.23976445
30	0xbdc2cbd0	-0.095115304
31	0x3d66c568	0.056340605
32	0x3d5ba5c9	0.053624902
33	0x3c82cb93	0.015966212
34	0xbe0fe65d	-0.1405272
35	0xbdcc240c	-0.09967813
36	0x3e871a8a	0.26387435
37	0x3df68671	0.120373614
38	0xbc0de5ce	-0.008660747
39	0x3e880ee4	0.2657386
40	0xbd116df9	-0.03550527
41	0x3dd65674	0.104657084
42	0xbb95f242	-0.0045759985
43	0x3e718991	0.23587634
44	0x3e2268fe	0.15860364
45	0xbebed71a	-0.37273484
46	0xbe2abb3c	-0.16672987
47	0xbe95e8d6	-0.29279202
48	0xbb0e47a4	-0.0021710182
49	0x3cd17a29	0.025570946
50	0xbdf6d7f2	-0.12052907
51	0x3d91fc36	0.071281835
52	0xbd908b02	-0.07057764
53	0xbdc34223	-0.09534099
54	0xbe233ccf	-0.15941165
55	0xbcc629d1	-0.024189861
56	0x3e054d92	0.13017872
57	0xbde5b0ef	-0.11215388
58	0x3bade680	0.0053070188
59	0x3da5d5b0	0.08097398
60	0x3e863d3c	0.26218593
61	0x39994126	0.00029230973
62	0x3d9b1b88	0.075736105
63	0xbf067341	-0.52519614
64	0xbebfa753	-0.37432346
65	0xbe0b12e3	-0.13581423
66	0xbf06e875	-0.5269845
67	0xbe6a3758	-0.22872674
68	0xbe3b7404	-0.18305975
69	0xbf3e8faa	-0.74437964
70	0xbeea1863	-0.4572173
71	0x3d6dd297	0.058062162
72	0xbe062a1b	-0.13102
73	0xbccffa8b	-0.025388023
74	0xbd0c33e6	-0.03422918
75	0xbe4e7268	-0.2016083
76	0xbdb438b3	-0.08799877
77	0xbe342255	-0.17591222
78	0xbe40bcbf	-0.18822001
79	0xbe0ae348	-0.13563263
80	0xbde34745	-0.11097578
81	0x3d2495c7	0.0401819
82	0xbc17a568	-0.0092557445
83	0xbe2111cb	-0.15729444
84	0x3dbd2e01	0.0923729
85	0x3e3f199f	0.18662117
86	0x3e3ad7fd	0.18246455
87	0xbe2e4c70	-0.17021346
88	0xbe34ca9e	-0.17655417
89	0xbe103479	-0.14082517
90	0x3e37ec1c	0.17961162
91	0xbbf7a6bb	-0.0075577176
92	0x3dc1ec70	0.09468925
93	0x3d63138e	0.05543857
94	0xbe5c40c8	-0.21509087
95	0xbf112886	-0.5670246
96	0x3e00a596	0.12563166
97	0xbe9aa8b2	-0.3020683
98	0xbeb663ea	-0.35623103
99	0xbea3e386	-0.32009524
100	0xbd9edf7e	-0.077574715
101	0xbdf18977	-0.117937975
102	0x3d6d472d	0.057929207
103	0x3d54022e	0.05175989
104	0xbc7d032c	-0.015442651
105	0xbee7bd9f	-0.45261857
106	0xbed269fe	-0.4109649
107	0xbedd05ab	-0.43168387
108	0xbddd0b5c	-0.10793182
109	0xbe63ae1d	-0.22234388
110	0xbdd8e7d3	-0.10591092
111	0xbb4bf0ec	-0.0031118942
112	0xbdef1d7e	-0.11675547
113	0xbd98dba0	-0.07463765
114	0xbdac26ff	-0.084058754
115	0x3cfd01e0	0.030884683
116	0xbd5868af	-0.05283421
117	0x3e09f89e	0.13473746
118	0x3dd63900	0.10460091
119	0x3dae499b	0.08510133
120	0x3e56593d	0.20932479
121	0x3e05f84e	0.13083002
122	0x3e8bc7d3	0.2730089
123	0x3dcec720	0.10096574
124	0xbcfe2a2d	-0.03102597
125	0x3e5d6847	0.2162181
126	0xbe987033	-0.297731
127	0xbec62ea5	-0.38707462
128	0xbef55bcd	-0.479216
129	0x3e9a9dfc	0.30198658
130	0x3d5923a4	0.053012505
131	0xbdd67b6f	-0.10472762
132	0x3df89178	0.12137121
133	0xbded8f05	-0.115995444
134	0xbed0e0b8	-0.40796447
135	0xbca4f242	-0.020135049
136	0xbe37e31a	-0.17957726
137	0xbe381705	-0.17977531
138	0xbc9da84c	-0.01924529
139	0x3d113575	0.03545137
140	0xbcee332d	-0.029077137
141	0xbe79f692	-0.24410465
142	0xbecd3011	-0.40075734
143	0xbec46f24	-0.38366044
144	0xbdd2b369	-0.10288126
145	0xbea6b00b	-0.32556185
146	0xbc8d327e	-0.01723599
147	0x3deeea65	0.11665801
148	0xbe678147	-0.22607909
149	0xbdb0e368	-0.08637124
150	0x3cca96fc	0.024730198
151	0xbebfc128	-0.37452054
152	0xbe7a2afd	-0.24430461
153	0x3d20aefe	0.039229386
154	0x3dd0733b	0.101782285
155	0xbc4343f6	-0.011918059
156	0x3e06cef9	0.13164891
157	0x3ddae5ef	0.106883876
158	0x3e965243	0.29359636
159	0xbe80ea89	-0.25178936
160	0xbe38b714	-0.18038589
161	0x3e2fac9a	0.17155686
162	0x3e1df559	0.15425624
163	0x3cbc1293	0.022958076
164	0xbe9608cc	-0.29303586
165	0xbe1d2239	-0.15345086
166	0xbe94330b	-0.28945193
167	0xbf143b94	-0.5790341
168	0xba19d3b2	-0.0005868032
169	0xbebc2317	-0.3674552
170	0xbe57eee1	-0.21087219
171	0xbd0235cb	-0.031789582
172	0x3db1d939	0.0868401
173	0xbe364b9a	-0.17802277
174	0x3e47c3a2	0.19508222
175	0x3c2192df	0.009861677
176	0x3e30af35	0.17254336
177	0xbe1c0ff5	-0.15240462
178	0x3cbcc32a	0.02304228
179	0xbdff3187	-0.124606185
180	0xbed64623	-0.41850385
181	0xbe5fbe0a	-0.21849838
182	0xbeaf387d	-0.34222785
183	0xbe3bbb26	-0.1833311
184	0xbea88d33	-0.32920226
185	0xbe26f71a	-0.163052
186	0xbf0dc359	-0.553762
187	0xbf051adb	-0.51994103
188	0xbf0406c0	-0.515728
189	0xbee72ac9	-0.4514983
190	0xbe5ca7ea	-0.21548429
191	0xbe265f93	-0.16247396
192	0x3c87b341	0.016564967
193	0x3d1ac5e2	0.037786372
194	0xbe14ba5b	-0.14524214
195	0xbcc08133	-0.023499107
196	0xbdac985e	-0.08427499
197	0xbe20e67d	-0.15712924
198	0x3d88b5c2	0.066752926
199	0xbd14222f	-0.036165413
200	0xbcb4713b	-0.022026649
201	0x3dc05445	0.09391073
202	0x3da0393b	0.07823416
203	0x3e21604d	0.15759392
204	0xbeb31265	-0.3497497
205	0xbdb62a93	-0.08894839
206	0xbcd62ab3	-0.026143407
207	0xbc88f12f	-0.016716568
208	0xbe5ee8f9	-0.2176856
209	0xbc6a3643	-0.014295164
210	0xba4e1950	-0.0007862048
211	0x397ec902	0.00024298209
212	0xbda420ff	-0.08014106
213	0x3c83caaf	0.016087858
214	0xbe27da64	-0.16391903
215	0xbe146dc0	-0.14494991
216	0x3d517945	0.051141042
217	0xbdbaee8e	-0.09127532
218	0xbea76741	-0.32695964
219	0xbc61fba0	-0.013792902
220	0xbec8f08c	-0.39246023
221	0xbf1cf60a	-0.61312926
222	0x3e2b0c12	0.16703823
223	0xbe90623a	-0.2819994
224	0xbec2b3df	-0.38027856
225	0xbeb778dc	-0.35834396
226	0xbea15efd	-0.31517783
227	0xbec94092	-0.39307076
228	0xbe4139a2	-0.18869641
229	0xbdc4032d	-0.09570918
230	0xbda4fbfe	-0.08055876
231	0xbe33d6e5	-0.17562445
232	0xbd8c6d5f	-0.068567984
233	0xbdc052ff	-0.0939083
234	0xbe7579fc	-0.23972315
235	0xbdf1050f	-0.11768543
236	0xbe12fe39	-0.14354791
237	0x3e10ab0b	0.14127748
238	0x3bcc94ce	0.006243325
239	0xbd23b475	-0.03996702
240	0xbde3d415	-0.11124436
241	0xbe43f5ce	-0.19136736
242	0xbeab01f6	-0.33399934
243	0xbc5d32ad	-0.013500852
244	0xbb9823f9	-0.00464296
245	0xbee03268	-0.43788457
246	0x3ce5cc71	0.028051587
247	0xbdc1da38	-0.0946545
248	0xbe3c6964	-0.18399578
249	0xbe80a194	-0.25123274
250	0xbe924ec1	-0.2857571
251	0xbe4b6e73	-0.19866352
252	0x3e26567f	0.16243933
253	0x3c84705c	0.016166858
254	0x3df496ff	0.11942863
255	0x3ebfa836	0.37433022

feature_extractor.5.bias f4 [64]
0	0xbd989261	-0.074497946
1	0xbb9b5056	-0.0047398014
2	0x3c4e5c14	0.012595195
3	0x3d383f70	0.044982374
4	0x3ca54be1	0.020177783
5	0xbdfc28e5	-0.123124875
6	0xbda1ae91	-0.07894624
7	0x3c01a247	0.007912225
8	0xbd264a1c	-0.04059802
9	0x3ccab5aa	0.024744827
10	0x3c4e4ca1	0.012591512
11	0x3c81c609	0.0158415
12	0x3d6657bd	0.056236017
13	0x3d55f876	0.052238904
14	0xbc814817	-0.015781445
15	0xbda40426	-0.08008604
16	0x3c236793	0.0099734245
17	0x3caec316	0.021333259
18	0xbd9469a7	-0.07246714
19	0xbd02f79b	-0.031974416
20	0x3d556a95	0.052103598
21	0x3d4cae9b	0.049971204
22	0xbc3d8f32	-0.011569785
23	0xbdbc5059	-0.091950126
24	0xbd087cb5	-0.033322055
25	0xbd523f3d	-0.05132984
26	0x3c393134	0.011303235
27	0xbc30b475	-0.010785212
28	0xbcc0e3a7	-0.023546053
29	0xbd6ea376	-0.058261357
30	0xbcd4c1bb	-0.025971284
31	0xbcdb818c	-0.026795171
32	0xbae791e9	-0.0017667386
33	0xbb54664f	-0.0032409613
34	0xbdcd492f	-0.10023724
35	0x3b83e296	0.004024814
36	0xbd13cbc7	-0.03608301
37	0x3d858e0a	0.065212324
38	0xbd63ba40	-0.055597544
39	0x3c9e5f5f	0.019332586
40	0xbd340527	-0.043950226
41	0xbcc36852	-0.023853455
42	0x3cbfd631	0.023417564
43	0x3d438aca	0.04773978
44	0x3ced238c	0.028947614
45	0x3c824907	0.015903963
46	0x3caf2d1f	0.02138382
47	0xbc2892d8	-0.0102889165
48	0xbd552f6f	-0.05204719
49	0xbd3548d9	-0.044258926
50	0x3d12b2f2	0.035815187
51	0x3c945085	0.018104801
52	0xbd51658c	-0.051122233
53	0x3d80d820	0.062912226
54	0x3be549db	0.0069973296
55	0x3d7aa7db	0.061195236
56	0xbd28139f	-0.041034337
57	0xbba95f4f	-0.0051688324
58	0xbd9b83ee	-0.07593523
59	0xbd825429	-0.063637085
60	0xbd1cacae	-0.038250618
61	0x3d373a70	0.044733465
62	0x3d4a8514	0.04944332
63	0x3c6b3216	0.014355203

feature_extractor.6.weight f4 [64]
0	0x3f54e0c1	0.8315545
1	0x3f04b53b	0.51839036
2	0x3f439df1	0.76412874
3	0x3f244a95	0.64176303
4	0x3f48673a	0.7828251
5	0x3f1ba9f0	0.6080618
6	0x3f5cd1b7	0.862575
7	0x3f3c9526	0.7366508
8	0x3f7788a1	0.96692854
9	0x3f539116	0.8264326
10	0x3f628413	0.8848278
11	0x3f809443	1.0045246
12	0x3eef18e7	0.46698686
13	0x3f34b939	0.7059513
14	0x3f37b0af	0.7175397
15	0x3f6c43ef	0.9229116
16	0x3f58aee4	0.8464186
17	0x3ed4219d	0.41431895
18	0x3f4c7342	0.7986337
19	0x3f37258e	0.7154168
20	0x3f4c7839	0.79870945
21	0x3f4f4f1b	0.8098008
22	0x3f1bea26	0.6090416
23	0x3f6074ee	0.8767842
24	0x3f1cdb0c	0.6127174
25	0x3f0bf40b	0.54669255
26	0x3f42e95b	0.7613732
27	0x3f611685	0.8792499
28	0x3f693f10	0.9111185
29	0x3f4bdda5	0.7963508
30	0x3f44d1bc	0.7688253
31	0x3ef2f689	0.47453716
32	0x3f47c471	0.7803412
33	0x3f359d0f	0.7094278
34	0x3f5cf756	0.86314905
35	0x3f1af691	0.6053248
36	0x3f29ac25	0.66278297
37	0x3f5c2437	0.8599276
38	0x3f21e1f5	0.6323541
39	0x3f46b5a9	0.7762094
40	0x3f650089	0.8945394
41	0x3f5e44fc	0.8682401
42	0x3f4a2720	0.7896595
43	0x3f67b611	0.90512186
44	0x3f488057	0.7832083
45	0x3f4cd33b	0.8000981
46	0x3f1f3779	0.6219402
47	0x3f40e431	0.7534819
48	0x3f3fc702	0.74913037
49	0x3f5dc9be	0.8663596
50	0x3f5691d3	0.8381626
51	0x3ee0a55f	0.43876168
52	0x3f5b26a2	0.85605824
53	0x3f1d9b74	0.6156533
54	0x3f172b9c	0.5905092
55	0x3f731aae	0.94962585
56	0x3f4431dd	0.76638585
57	0x3f520424	0.8203757
58	0x3f28a949	0.6588331
59	0x3f2d3b51	0.67668635
60	0x3f5ad37e	0.8547896
61	0x3f2ca4ab	0.67438763
62	0x3f20885b	0.6270806
63	0x3f4023d0	0.75054646

feature_extractor.6.bias f4 [64]
0	0xbf47ac40	-0.7799721
1	0xbfa00ee1	-1.2504541
2	0xbf4644f5	-0.7744897
3	0xbf8299ef	-1.0203227
4	0xbf496892	-0.78675187
5	0xbfa74522	-1.3067973
6	0xbf4174f9	-0.7556911
7	0xbf0b32ac	-0.54374194
8	0xbf639be8	-0.8890977
9	0xbf28af1a	-0.65892184
10	0xbf3944ac	-0.7237041
11	0xbf53fa5a	-0.8280388
12	0xbf369361	-0.7131863
13	0xbf356c82	-0.70868695
14	0xbf856921	-1.0422708
15	0xbf324d9a	-0.6964966
16	0xbf4c2632	-0.7974578
17	0xbf0138f4	-0.5047753
18	0xbf7cc5bc	-0.9873922
19	0xbf3cbc1a	-0.7372452
20	0xbf3cb7f7	-0.7371821
21	0xbf570a44	-0.8400004
22	0xbf4b9f9b	-0.79540414
23	0xbf3efa2e	-0.74600494
24	0xbf4fd859	-0.81189495
25	0xbf6da88c	-0.9283531
26	0xbf25433e	-0.6455573
27	0xbf34812f	-0.7050962
28	0xbf1fec0c	-0.62469554
29	0xbf1f79a9	-0.62295014
30	0xbf56b3f5	-0.8386834
31	0xbf792586	-0.9732288
32	0xbf8b7877	-1.0896138
33	0xbf1a0a9d	-0.60172445
34	0xbf3df5e2	-0.7420331
35	0xbf9a4584	-1.2052464
36	0xbf87c79c	-1.0607791
37	0xbf548a03	-0.8302309
38	0xbf8d5047	-1.1040124
39	0xbf87e738	-1.0617437
40	0xbf468cf9	-0.7755886
41	0xbf399328	-0.7249017
42	0xbf2ee8ac	-0.6832378
43	0xbf5254d8	-0.8216071
44	0xbf0584a7	-0.52155536
45	0xbf2f56fb	-0.68492097
46	0xbf792491	-0.9732142
47	0xbf251d97	-0.64498276
48	0xbf57dd4a	-0.84322035
49	0xbf256b39	-0.64616734
50	0xbf4e86db	-0.80674523
51	0xbece05fb	-0.40238938
52	0xbf70ae25	-0.94015723
53	0xbf82191e	-1.0163915
54	0xbf82d849	-1.0222255
55	0xbf5bdfb7	-0.85888237
56	0xbf656120	-0.89601326
57	0xbf2f50a1	-0.68482405
58	0xbf78cd1b	-0.97187966
59	0xbf4eafe4	-0.8073714
60	0xbf664dcb	-0.8996245
61	0xbf019cb4	-0.50629735
62	0xbf17951c	-0.592119
63	0xbf1da155	-0.615743

feature_extractor.6.running_mean f4 [64]
0	0xc0628e7e	-3.539947
1	0xc037b006	-2.8701186
2	0xc0306b9e	-2.7565684
3	0xbf8debec	-1.1087623
4	0xc016a935	-2.3540776
5	0xc01f4b2d	-2.4889634
6	0xc030ade0	-2.7606125
7	0xc029b565	-2.6516964
8	0xc0323d2d	-2.7849839
9	0xc04fdc5e	-3.2478251
10	0xc014c666	-2.3246093
11	0xbfdb4511	-1.7130452
12	0xbed5938d	-0.41714135
13	0xc02426a5	-2.5648587
14	0xc0109c15	-2.2595265
15	0xc024a3e2	-2.5725026
16	0xc0063a05	-2.0972912
17	0xc00215a3	-2.0325706
18	0xc022af67	-2.5419557
19	0xc0116113	-2.27155
20	0xc014ec36	-2.3269172
21	0xc026dcc9	-2.6072257
22	0xc020bba4	-2.5114527
23	0xbf198094	-0.5996182
24	0xc02c221e	-2.6895823
25	0xc0110f8c	-2.266574
26	0xc02db460	-2.7141342
27	0xbfdd0c3e	-1.7269361
28	0xc014f02d	-2.3271592
29	0xc01f20ab	-2.486369
30	0xc000d433	-2.0129516
31	0xc00d9abe	-2.2125697
32	0xc059e360	-3.4045029
33	0xbfde1f4b	-1.73533
34	0xc0053a54	-2.081685
35	0xc0520fc5	-3.2822125
36	0xc01c21cb	-2.4395626
37	0xc02f705c	-2.7412329
38	0xbf3b1c65	-0.730902
39	0xbfe76e1c	-1.8080478
40	0xc029a352	-2.6505933
41	0xbfd7dad6	-1.6863658
42	0xc051761f	-3.2728345
43	0xc01a7231	-2.4132197
44	0xc022b4c5	-2.5422833
45	0xc015fdb1	-2.343609
46	0xc02621c0	-2.59581
47	0xbfff130a	-1.9927685
48	0xc0113148	-2.268633
49	0xbfeec934	-1.8655152
50	0xc01b3f4c	-2.4257383
51	0x3ed378a2	0.41302973
52	0xbfd977ad	-1.6989647
53	0xc00e4732	-2.2230954
54	0xc036b802	-2.854981
55	0xbfe04653	-1.7521461
56	0xc019afc7	-2.4013536
57	0xbf3bf584	-0.734215
58	0xbff91846	-1.9460533
59	0xc0309513	-2.7590988
60	0xc00d6860	-2.2094955
61	0xbf990704	-1.1955266
62	0xbfe75562	-1.8072932
63	0xbfbaceea	-1.4594395

feature_extractor.6.running_var f4 [64]
0	0x40af3074	5.4746647
1	0x3ff52ef7	1.9154958
2	0x40d73788	6.7255287
3	0x405da00f	3.4628942
4	0x40cc2a63	6.380174
5	0x3ff4c028	1.9121141
6	0x40d0a378	6.5199547
7	0x4101039b	8.06338
8	0x40f07df2	7.515374
9	0x40b7c3c1	5.7426457
10	0x40f5ac96	7.6773176
11	0x40ea9e4f	7.331825
12	0x40262858	2.5962124
13	0x40de6aa8	6.9505196
14	0x4037202d	2.8613389
15	0x40f447e4	7.6337757
16	0x40e65410	7.1977615
17	0x4014b3a2	2.323464
18	0x40989e60	4.769333
19	0x40b15436	5.5415297
20	0x40c287d4	6.0790806
21	0x40d97c15	6.7963967
22	0x405ed59c	3.4817877
23	0x4092b473	4.5845275
24	0x402a73da	2.663321
25	0x40263765	2.597131
26	0x4108ffe0	8.5624695
27	0x40965587	4.6979403
28	0x41129ea0	9.163727
29	0x40cc601d	6.3867326
30	0x4089c0ac	4.3047695
31	0x4025e864	2.592309
32	0x40280643	2.6253822
33	0x4087cda2	4.2438517
34	0x40c1cd7c	6.0563335
35	0x4027d3b4	2.6222963
36	0x40220be1	2.531975
37	0x409f143c	4.97122
38	0x40392038	2.8925915
39	0x40785e34	3.8807497
40	0x40e34736	7.1024427
41	0x40e8a85c	7.2705517
42	0x40f2a746	7.582919
43	0x40d812e0	6.752304
44	0x40e4f7c8	7.1552467
45	0x40c2cd08	6.087528
46	0x4021ef57	2.5302331
47	0x40ddc36f	6.9301066
48	0x40a1011d	5.031386
49	0x410584e6	8.344946
50	0x40c3f725	6.123919
51	0x4024b2bf	2.5734098
52	0x4046a6b9	3.103926
53	0x4056b6d9	3.3549101
54	0x4017ec1e	2.3737864
55	0x40dd3cdf	6.9136806
56	0x40ae6449	5.449742
57	0x4096a71f	4.7079005
58	0x403ba506	2.9319472
59	0x4070fa51	3.765278
60	0x40b7fd9e	5.749709
61	0x40bb9e42	5.8630686
62	0x4088bb25	4.272845
63	0x408ea6be	4.4578543

feature_extractor.10.weight f4 [128, 64, 3, 3]
0	0x3df14b9c	0.117819995
1	0x3d857ee9	0.06518347
2	0xbdc5a20a	-0.09650047
3	0x3ceb309c	0.028709702
4	0x3d8fd3a4	0.07022789
5	0xbc34cf36	-0.011035731
6	0x3e5cf261	0.21576835
7	0x3e350094	0.17676002
8	0x3e246a48	0.16056168
9	0x3e02e255	0.12781651
10	0xbdf7ff47	-0.12109237
11	0xbe071022	-0.13189748
12	0x3e14ee2a	0.14543977
13	0xbdeb335d	-0.11484406
14	0x3ceaf4cc	0.028681181
15	0xbc40f201	-0.011776448
16	0xbe3a652e	-0.1820266
17	0xbd1a4dab	-0.037671726
18	0x3e733f7d	0.23754688
19	0x3e4c77ee	0.19967625
20	0x3e402543	0.18764214
21	0x3ded8aa0	0.11598706
22	0x3e04f179	0.1298274
23	0x3dcf3a78	0.10118574
24	0xbddec910	-0.108781934
25	0x3e83789f	0.25677964
26	0x3dac770b	0.08421143
27	0x3d9af2cd	0.07565842
28	0xbc6b4728	-0.014360227
29	0xbd17678f	-0.036963996
30	0xbe368f3c	-0.17828077
31	0xbe81a66b	-0.2532228
32	0xbeaef9dd	-0.34175006
33	0xbeb2d3b0	-0.3492713
34	0xbe9adaa0	-0.30244923
35	0xbe93f0c3	-0.28894624
36	0x3d1b6504	0.037938133
37	0xbd396aec	-0.045267984
38	0xbd7dcc1e	-0.06196224
39	0x3cd44fa9	0.025916891
40	0xbc47281b	-0.012155558
41	0x3d0ca3f8	0.03433606
42	0xb9e0f928	-0.00042910245
43	0xbc045156	-0.008076033
44	0x3cd59fec	0.026077233
45	0x3e85a122	0.26099497
46	0x3f03ca74	0.51480794
47	0x3e7f5e6b	0.24938361
48	0xbe0d4b60	-0.13798285
49	0xbcc46238	-0.023972616
50	0x3c358e9d	0.011081365
51	0xbe9efd3d	-0.3105258
52	0xbe9f2a32	-0.3108688
53	0xbdedee31	-0.11617697
54	0x3ea32191	0.31861547
55	0x3e6fb2b6	0.23408017
56	0x3d83d407	0.064369254
57	0x3e36f916	0.17868456
58	0x3e048cfe	0.12944409
59	0xbe91aba6	-0.2845127
60	0xbe14b9ae	-0.14523956
61	0x3d981bd9	0.074271865
62	0x3db4b317	0.08823221
63	0xbcba6c79	-0.022756802
64	0xbd82b24f	-0.06381666
65	0x3dfa6164	0.12225607
66	0x3c2dac3e	0.010600148
67	0xbe48475e	-0.19558474
68	0xbdbcee4a	-0.092251375
69	0x3e5f59e6	0.21811637
70	0x3dbcd3ed	0.09220109
71	0x3d38fae4	0.045161143
72	0x3e4ae88d	0.19815274
73	0xbd11a03e	-0.03555321
74	0x3e884fe9	0.26623467
75	0x3d72db45	0.059291143
76	0x3d3cc4ba	0.04608605
77	0x3d0ede45	0.03487994
78	0xbe00ab94	-0.12565452
79	0xbe15a6f6	-0.14614472
80	0xbc960932	-0.018314932
81	0xbebb59f2	-0.3659206
82	0xbebd39e1	-0.3695822
83	0xbea4efb5	-0.32214132
84	0xbd6d2453	-0.05789597
85	0xbe9fcd20	-0.31211185
86	0xbde0bcd7	-0.10973518
87	0xbc946219	-0.018113183
88	0xbec5eab3	-0.38655624
89	0xbd6dbddf	-0.058042403
90	0x3db14c46	0.08657126
91	0x3c9d94a2	0.019235913
92	0x3d933986	0.07188706
93	0xb9755744	-0.0002339753
94	0xbdd2dea5	-0.10296372
95	0xbc5d362c	-0.013501685
96	0xbea9e5f5	-0.33183256
97	0xbe7869ae	-0.24259064
98	0xbe87b2f8	-0.2650373
99	0x3e3d5081	0.18487741
100	0xbd88c24a	-0.06677683
101	0xbe4cd9eb	-0.20005004
102	0x3d29a8ff	0.041420933
103	0xbc696218	-0.014244579
104	0xbe8d4fb3	-0.27599868
105	0x3d58b19f	0.052903768
106	0x3d593d20	0.05303681
107	0xbe0be54e	-0.13661692
108	0xbe24a383	-0.16078
109	0xbe850733	-0.25982055
110	0xbdf7a656	-0.12092273
111	0xbd061761	-0.03273714
112	0xbe4d2677	-0.20034204
113	0x3c28be6f	0.010299309
114	0xbe84bf76	-0.25927323
115	0xbeb14225	-0.34620777
116	0xbe9fb164	-0.31190026
117	0x3d12ccf2	0.035839982
118	0xbe166e9a	-0.14690629
119	0xbea0bc3c	-0.3139361
120	0x3c142b16	0.009043476
121	0x3d3c243a	0.045932986
122	0x3c5e1fdc	0.013557401
123	0x3defb0f8	0.11703676
124	0x3dea94b4	0.11454144
125	0x3cdf788e	0.027279165
126	0x3eda59f4	0.42646754
127	0x3e1cea65	0.1532379
128	0x3e7a80ab	0.24463145
129	0x3d7f21ae	0.06228798
130	0x3c1980e9	0.0093691135
131	0x3dbb69a6	0.0915101
132	0xbd04dd55	-0.03243764
133	0xbd5c0742	-0.05371786
134	0xbdba1d2c	-0.09087595
135	0xbf304c76	-0.6886667
136	0xbf020b7a	-0.5079876
137	0xbf490edc	-0.785383
138	0xbe049288	-0.12946522
139	0xbebfb65e	-0.37443823
140	0xbe913e9f	-0.2836809
141	0x3ea1516d	0.31507435
142	0x3e1265ab	0.14296596
143	0x3e83f9d1	0.25776532
144	0xbdd78393	-0.10523143
145	0xbd6a4a36	-0.05719968
146	0xbbf26315	-0.0073970654
147	0xbe338b11	-0.17533518
148	0xbdd38c0c	-0.10329446
149	0xbe39eec3	-0.18157487
150	0xbe52e2fa	-0.20594397
151	0xbe1d13eb	-0.1533963
152	0xbe19aff6	-0.1500853
153	0xbc7c941d	-0.015416172
154	0x3d16f14a	0.036851205
155	0xbe0c086c	-0.13675088
156	0x3a6446d6	0.0008708065
157	0xbc595e42	-0.013267102
158	0x3d245b9a	0.04012642
159	0x3c13959d	0.009007839
160	0x3d5260ed	0.051361967
161	0x3e03a3df	0.1285548
162	0x3e833d69	0.2563279
163	0x3eacfab6	0.33785027
164	0x3e362260	0.1778655
165	0x3dafdd5b	0.08587142
166	0x3d3f71b3	0.04673929
167	0x3db4ac29	0.088218994
168	0xbdecbc80	-0.11559391
169	0xbe3612a1	-0.17780544
170	0xbdc9a093	-0.0984508
171	0xbcda1077	-0.02661918
172	0x3cf06f25	0.029349873
173	0x3c55b753	0.013044196
174	0xbc80a18f	-0.015702037
175	0x3c2ff97c	0.010740634
176	0xbe449fd7	-0.19201599
177	0xbdc64836	-0.09681742
178	0xbdecde7e	-0.115658745
179	0xbdd73600	-0.105083466
180	0x3ecc95da	0.39958078
181	0x3e37ed32	0.17961577
182	0x3c94abbe	0.0181483
183	0x3ded3bca	0.115836695
184	0xbe6f2abc	-0.23356146
185	0xbeb144ff	-0.34622952
186	0xbe906ac7	-0.28206465
187	0xbe85d792	-0.2614103
188	0xbe5be4c2	-0.21473983
189	0xbce80132	-0.028320882
190	0xbcb71a5c	-0.022351436
191	0xbce858cf	-0.02836266
192	0x3db929e5	0.09041194
193	0xbc424b13	-0.011858719
194	0x3d9e07bf	0.07716321
195	0x3d35a639	0.044347975
196	0x3d406274	0.046968892
197	0x3d6cf6dc	0.05785261
198	0xbe34ccb9	-0.1765622
199	0xbe6c04b4	-0.23048669
200	0xbd48e063	-0.049042117
201	0x3c884dcf	0.016638665
202	0xbe444385	-0.19166382
203	0xbe2c650f	-0.16835426
204	0xbdd5b828	-0.10435516
205	0xbd6947aa	-0.05695311
206	0xbd839a38	-0.06425899
207	0x3e3446e1	0.17605163
208	0xbdc242c9	-0.094853945
209	0x3eaa3333	0.33242187
210	0xbd71d18c	-0.05903773
211	0xbe523fd5	-0.20532162
212	0xbd1af4b3	-0.03783102
213	0xbddfaa74	-0.10921183
214	0xbeb64d7b	-0.35605988
215	0xbe80a8e7	-0.25128862
216	0xbe1b2f3d	-0.15154739
217	0xbe1f8455	-0.15577824
218	0x3e3b6004	0.18298346
219	0xbe05da3f	-0.13071536
220	0xbe08fca9	-0.13377632
221	0x3df493a1	0.119422205
222	0xbe03b020	-0.12860155
223	0xbe7e02b4	-0.24805719
224	0xbdc7ee4b	-0.09762248
225	0x3e4c0b9b	0.19926302
226	0x3d499aab	0.04921977
227	0xbc51a768	-0.01279626
228	0xbcd32df4	-0.025778748
229	0xbdef32fd	-0.11679647
230	0xbda49d99	-0.08037872
231	0xbe3eccb6	-0.18632779
232	0xbec27c33	-0.3798538
233	0xbe701f3b	-0.23449413
234	0xbea0d741	-0.31414226
235	0xbe2c70f0	-0.16839957
236	0x3d2096f2	0.039206453
237	0x3dd51211	0.104038365
238	0x3d2a4981	0.041574005
239	0xbd8027b9	-0.062575765
240	0x3e1ee18f	0.15515731
241	0x3e381dba	0.1798009
242	0x3e270990	0.16312242
243	0x3dca145b	0.09867164
244	0xbe189434	-0.14900285
245	0xbcab8f57	-0.020942373
246	0xbe85c849	-0.26129368
247	0xbd5b4d42	-0.053540476
248	0x3e592cd3	0.21208505
249	0xbe8811a2	-0.26575953
250	0x3debba1d	0.11510108
251	0x3d6a128a	0.057146586
252	0x3e269adc	0.16270012
253	0x3dd1ee8c	0.10250577
254	0x3d90b366	0.070654675
255	0x3d051c27	0.03249755

feature_extractor.10.bias f4 [128]
0	0xbc4c2b99	-0.012461566
1	0xbd797dfd	-0.060911167
2	0xbcdaede7	-0.026724769
3	0xbd08320c	-0.033250853
4	0xbd5b031c	-0.053469762
5	0xbd0e34be	-0.034718268
6	0x3b759797	0.0037474388
7	0xbcea808e	-0.028625753
8	0xbc34c455	-0.011033137
9	0xbdbaceff	-0.091215126
10	0xbca4a6ee	-0.02009913
11	0xbd995122	-0.07486178
12	0xbd31c5a0	-0.04340136
13	0xbd911cd2	-0.07085575
14	0xbb8f6f90	-0.004377313
15	0xbcabbd9c	-0.020964436
16	0xbd0f1f7d	-0.03494214
17	0xbd03235e	-0.03201615
18	0xbd4f8ba7	-0.050670292
19	0xbd0f3c5f	-0.034969684
20	0x3be903de	0.0071110567
21	0xbcba9a92	-0.022778783
22	0xbcf1b90e	-0.029507186
23	0xbd9b1e30	-0.07574117
24	0xbd4e22e9	-0.05032626
25	0xbd524f32	-0.051345058
26	0xbd9e59d9	-0.07731981
27	0x3bf047f1	0.007332795
28	0xbc6de5b1	-0.014520095
29	0xbcae738c	-0.021295331
30	0xbd4ec6e3	-0.050482642
31	0xbd18dcf8	-0.037320107
32	0xbd55a942	-0.05216337
33	0xbd78d3d8	-0.060748905
34	0xbd30b52b	-0.043141525
35	0xb99060ec	-0.00027538033
36	0xbd610d2b	-0.0549442
37	0xbd816845	-0.06318716
38	0xbd0cebda	-0.034404613
39	0xbd084834	-0.033271983
40	0xbc319db6	-0.010840824
41	0xbd0a63a1	-0.03378642
42	0x3c3617b0	0.011114046
43	0xbd113469	-0.035450373
44	0xbd84f849	-0.06492669
45	0xbc7be176	-0.015373578
46	0xbd4115bf	-0.04713988
47	0xbcc03490	-0.023462564
48	0xbc0c619a	-0.008568192
49	0xbd57053c	-0.052495226
50	0xbd5d3704	-0.054007545
51	0xbd1e4772	-0.038642354
52	0xbc8adbd9	-0.016950535
53	0xbbed8279	-0.0072482196
54	0x3c2cfdf4	0.010558594
55	0xbcc15197	-0.023598475
56	0xbd8daab2	-0.06917323
57	0xbcc69af4	-0.02424381
58	0xbc5a477c	-0.013322707
59	0xbd85f968	-0.06541711
60	0xbc0283ae	-0.007965965
61	0xbcea2dfb	-0.028586378
62	0xbc695401	-0.0142412195
63	0xbd424f2f	-0.047438797
64	0xbb0aaf78	-0.0021161716
65	0x3cdc4efa	0.026893128
66	0xbcfbeae5	-0.030751655
67	0xbd7a9096	-0.061173044
68	0x3ae0bf9e	0.001714695
69	0xbd888931	-0.06666792
70	0x3bf2fd21	0.007415429
71	0xbd9f3f30	-0.07775724
72	0xbd40280d	-0.046913195
73	0xbdac7b33	-0.08421936
74	0xbce6c562	-0.028170291
75	0xbc92b973	-0.017910695
76	0xbdb07b03	-0.086172126
77	0xbc0b7839	-0.00851255
78	0xbd054026	-0.03253188
79	0xbcb79c53	-0.022413408
80	0xbd7e6228	-0.062105328
81	0xbc818c58	-0.015813991
82	0xbd1c5119	-0.03816328
83	0xbcc04af1	-0.023473235
84	0xbd487c8d	-0.048946906
85	0xbd9c2293	-0.07623782
86	0xbc80df60	-0.015731514
87	0x3c3e61a7	0.011619962
88	0xbd53a931	-0.051675025
89	0x3d14dbe1	0.036342505
90	0xbc8c9522	-0.017160956
91	0xbd4a2797	-0.049354162
92	0xbb2d5d03	-0.0026453144
93	0xbd8786f1	-0.06617535
94	0xbb9b1539	-0.0047327545
95	0xbbb9a867	-0.005665827
96	0x3cad66a0	0.0211671
97	0x3beef48e	0.007292337
98	0xbc5fdce9	-0.013663509
99	0xbd1fc05f	-0.03900182
100	0xbcae9252	-0.021310005
101	0xbd76e085	-0.060272712
102	0xbd93a7e8	-0.0720976
103	0xbd3a677f	-0.045508858
104	0xbd24c9a5	-0.040231366
105	0xbda5fa87	-0.08104425
106	0xbc90b99e	-0.017666634
107	0xbd082fc2	-0.03324867
108	0x3b18a465	0.0023291346
109	0xbd9a54a1	-0.07535673
110	0xbc8425f2	-0.016131375
111	0x3ca6bcc1	0.020353677
112	0xbcd9196e	-0.026501384
113	0xbd11b7bd	-0.035575617
114	0xbd8ba528	-0.068186104
115	0xbc77ebed	-0.015131933
116	0xbd0649b5	-0.032785136
117	0xbcae5da7	-0.021284891
118	0xbc1968f5	-0.009363403
119	0xbd84bb13	-0.06480994
120	0x3c2d6454	0.010583002
121	0xbd25523a	-0.04036162
122	0xbd3321ca	-0.043733396
123	0xbce997ba	-0.028514732
124	0xbd79d8db	-0.060997825
125	0xbc848bea	-0.016179997
126	0xbb2fc944	-0.0026822845
127	0xbcc4cfe7	-0.024024917

feature_extractor.11.weight f4 [128]
0	0x3ff3c271	1.9043714
1	0x3ff82fc5	1.9389578
2	0x4008977c	2.1342459
3	0x4003d7dc	2.06005
4	0x3fead3db	1.8345903
5	0x3feef047	1.8667077
6	0x3ff468c8	1.9094477
7	0x40162230	2.3458366
8	0x400122d4	2.0177507
9	0x3ffffc82	1.9998934
10	0x3fd8e365	1.6944395
11	0x3feab03a	1.833503
12	0x3ff3a36d	1.9034249
13	0x4003fb27	2.0622041
14	0x3fe3dad1	1.7801152
15	0x3feb17a4	1.836659
16	0x3fe9b2ea	1.8257725
17	0x3fe418df	1.782009
18	0x40029c1c	2.0407782
19	0x3ffff6cc	1.9997191
20	0x3ff3d300	1.9048767
21	0x4025e311	2.591984
22	0x3fdd1207	1.7271127
23	0x4002adaa	2.0418496
24	0x4000a2cb	2.009936
25	0x4005ed89	2.092623
26	0x4001bec9	2.0272696
27	0x40012589	2.017916
28	0x3ff40f2e	1.9067132
29	0x4009c088	2.1523762
30	0x400069d0	2.0064583
31	0x401e1cb0	2.470501
32	0x3fde35a1	1.7360116
33	0x401aac7b	2.4167774
34	0x3ffbbf33	1.9667724
35	0x3febd8ca	1.8425534
36	0x40099501	2.1497195
37	0x3ffc8445	1.9727865
38	0x400a845e	2.164329
39	0x3fed8479	1.8556052
40	0x40032e6c	2.0497084
41	0x3ffdb5d7	1.9821118
42	0x3ff65458	1.924449
43	0x3ffe8163	1.9883236
44	0x3ff0ef80	1.882309
45	0x3ff4fffe	1.9140623
46	0x3fe27502	1.7691958
47	0x3fe8c9ea	1.8186619
48	0x40011697	2.0170038
49	0x4014b951	2.3238108
50	0x400b2b94	2.1745348
51	0x3ff6810d	1.9258133
52	0x400480a9	2.0703528
53	0x4008ca2e	2.13734
54	0x400211a9	2.032328
55	0x40029fff	2.0410154
56	0x40053bc5	2.081773
57	0x3fe8e67c	1.8195338
58	0x3fec7115	1.847201
59	0x40035091	2.0517924
60	0x3ff1774e	1.8864534
61	0x4012b66b	2.292384
62	0x4001dca9	2.029093
63	0x3feb46e5	1.838101
64	0x3ff577ef	1.9177226
65	0x40075df5	2.1151097
66	0x3ff2c5a7	1.8966569
67	0x40000327	2.0001924
68	0x3ff2f975	1.8982378
69	0x3fec7800	1.8474121
70	0x3fdccbc7	1.7249688
71	0x3ffab233	1.9585632
72	0x3ff89c1f	1.9422644
73	0x3ffc7e41	1.972603
74	0x3ffa641a	1.9561799
75	0x3ffdb0ce	1.9819582
76	0x400da6f2	2.2133145
77	0x4001c8e8	2.0278873
78	0x3ff86b5e	1.9407766
79	0x3fd4f823	1.6638225
80	0x3fe4d6b8	1.7878027
81	0x3feb1232	1.8364928
82	0x3ffb852d	1.9650017
83	0x3ff581f9	1.918029
84	0x3ff6b1ba	1.9272988
85	0x3febc39f	1.8419074
86	0x3ff7ce1c	1.9359775
87	0x40012308	2.0177631
88	0x3ff78624	1.9337811
89	0x3fe7af8a	1.8100445
90	0x3ff21b19	1.891452
91	0x3ffda99c	1.9817386
92	0x3fea0fe2	1.8286097
93	0x3ff84945	1.939736
94	0x40063191	2.0967753
95	0x4007b728	2.120554
96	0x4001522c	2.0206404
97	0x3ffdea80	1.9837189
98	0x3ffc3daf	1.9706324
99	0x3fffcc7f	1.9984282
100	0x3ff15615	1.8854395
101	0x3ff997a0	1.9499397
102	0x3ff94cd0	1.9476566
103	0x40024547	2.0354784
104	0x3ff943bc	1.9473796
105	0x40059cd1	2.0876963
106	0x40032f4f	2.0497625
107	0x4003e50f	2.0608556
108	0x3fe455a2	1.7838633
109	0x3ff2e938	1.8977423
110	0x3ff0bf6e	1.880842
111	0x4002b509	2.0422995
112	0x3ffcdf60	1.9755669
113	0x3ffee416	1.9913356
114	0x3fe5a9ec	1.7942481
115	0x4005eb2e	2.0924792
116	0x3fe64cc2	1.7992175
117	0x3ffe3a8b	1.9861616
118	0x3fe9e6a4	1.8273511
119	0x3ff47ed9	1.9101211
120	0x400347a7	2.0512483
121	0x4009d511	2.1536295
122	0x3ff81425	1.9381148
123	0x3fe7867d	1.8087918
124	0x3ff970c5	1.948754
125	0x3fffea3e	1.999336
126	0x4000146c	2.0012465
127	0x4006ad09	2.1043112

feature_extractor.11.bias f4 [128]
0	0xbfaff426	-1.3746383
1	0xbfb1c8bd	-1.3889385
2	0xbfd383fd	-1.6524655
3	0xbfc5f202	-1.546448
4	0xbf9b502d	-1.2133843
5	0xbf9caf80	-1.2241058
6	0xbf880835	-1.0627505
7	0xbf4a3f3b	-0.7900273
8	0xbfb02fe3	-1.3764614
9	0xbfa717ae	-1.3054101
10	0xbf7bd9ed	-0.98379403
11	0xbf706ae9	-0.9391313
12	0xbfa60a53	-1.2971901
13	0xbfc9c6da	-1.576381
14	0xbf8a478f	-1.0803088
15	0xbf88b45f	-1.0680045
16	0xbfa5d396	-1.2955196
17	0xbf71b0d1	-0.94410425
18	0xbfad4a49	-1.3538295
19	0xbf7681d1	-0.96291834
20	0xbf75a5a6	-0.95955884
21	0xbf9276ee	-1.1442544
22	0xbf8ba2fd	-1.0909115
23	0xbfbb443d	-1.46302
24	0xbfa9e803	-1.3273929
25	0xbfb29a68	-1.3953371
26	0xbfd95bbd	-1.6981121
27	0xbf4fbaeb	-0.8114459
28	0xbf826249	-1.0186244
29	0xbfa4da3a	-1.2879097
30	0xbf94f262	-1.1636469
31	0xbf87ded7	-1.061488
32	0xbf7e9be9	-0.9945665
33	0xbf730863	-0.9493467
34	0xbfd9f2ac	-1.7027183
35	0xbf98c514	-1.1935143
36	0xbfc2f9cf	-1.5232486
37	0xbfb74a68	-1.4319582
38	0xbfaa7bfd	-1.3319088
39	0xbfa7839c	-1.3087039
40	0xbf82e4a1	-1.0226022
41	0xbfcbcbb1	-1.5921537
42	0xbf80a79f	-1.0051154
43	0xbf9954c9	-1.1978999
44	0xbf8853e7	-1.0650605
45	0xbfb0124b	-1.3755583
46	0xbfa9fb74	-1.3279862
47	0xbfa9a038	-1.325202
48	0xbfae9099	-1.3637878
49	0xbfb434e5	-1.4078642
50	0xbf8b790e	-1.0896318
51	0xbf99c7e6	-1.2014129
52	0xbfa54bf3	-1.2913803
53	0xbfb363a5	-1.4014784
54	0xbfa12b2a	-1.2591298
55	0xbfca7a4f	-1.5818576
56	0xbfaf22ec	-1.3682532
57	0xbf96798e	-1.1755846
58	0xbf98d6d3	-1.1940559
59	0xbfb969f0	-1.4485455
60	0xbf888986	-1.0666969
61	0xbf71d934	-0.9447205
62	0xbfc525a4	-1.5402112
63	0xbf9e8056	-1.2382915
64	0xbfb0627b	-1.3780054
65	0xbfa56085	-1.292008
66	0xbf7ab955	-0.97939044
67	0xbfb7fba2	-1.4373667
68	0xbfc0cedd	-1.506313
69	0xbfc003d8	-1.5001173
70	0xbf8113cc	-1.0084167
71	0xbfaea92e	-1.364538
72	0xbfb0ea6b	-1.3821539
73	0xbfcd78ee	-1.605253
74	0xbfd26ad0	-1.6438847
75	0xbf8af114	-1.0854821
76	0xbfdc18e6	-1.7195098
77	0xbf3e0673	-0.7422859
78	0xbf6b8b33	-0.92009276
79	0xbf914267	-1.1348389
80	0xbfaa0f00	-1.3285828
81	0xbf9e5550	-1.2369785
82	0xbfbaac43	-1.458382
83	0xbf970e2f	-1.1801203
84	0xbfc4b8ba	-1.5368874
85	0xbf9cbbe9	-1.2244846
86	0xbf9ea49c	-1.2393985
87	0xbfae81da	-1.3633378
88	0xbf956ff4	-1.167479
89	0xbf742725	-0.9537223
90	0xbfae5dc9	-1.3622371
91	0xbfd8f7b2	-1.6950591
92	0xbf874613	-1.056826
93	0xbfcf55cc	-1.6198058
94	0xbf7bbe4f	-0.9833726
95	0xbfde9247	-1.738839
96	0xbf5b7f54	-0.8574116
97	0xbfb6c47e	-1.4278715
98	0xbfd6e2ed	-1.6788002
99	0xbfeac4f4	-1.8341355
100	0xbfa1b0db	-1.2632097
101	0xbf95393f	-1.1658095
102	0xbf8dd079	-1.1079246
103	0xbfa93282	-1.3218539
104	0xbf82dddc	-1.0223956
105	0xbfd0125f	-1.6255606
106	0xbfb8c685	-1.4435583
107	0xbf961fd4	-1.1728463
108	0xbf96df8c	-1.1786971
109	0xbfa5aeba	-1.2943947
110	0xbf889db4	-1.0673127
111	0xbfc2df9c	-1.522449
112	0xbfa3835e	-1.2774465
113	0xbf9ccfef	-1.2250956
114	0xbfacdb62	-1.350445
115	0xbf4f2ee2	-0.8093091
116	0xbfb43f94	-1.4081903
117	0xbf84f9bc	-1.0388713
118	0xbf85a80c	-1.0441909
119	0xbf93eb82	-1.1556246
120	0xbf983977	-1.1892537
121	0xbfb881fa	-1.4414666
122	0xbfa1d2db	-1.2642473
123	0xbf920454	-1.1407571
124	0xbf8e0311	-1.1094686
125	0xbf9f8686	-1.2462928
126	0xbfbeeda2	-1.491627
127	0xbf7b6453	-0.9819996

feature_extractor.11.running_mean f4 [128]
0	0xbf47c17a	-0.78029597
1	0xbeda0188	-0.42579293
2	0xbf8c0f37	-1.0942143
3	0xbe2a7f77	-0.16650186
4	0xbe99bf5e	-0.30028814
5	0xbeb73bf2	-0.35787922
6	0xbf446740	-0.76720047
7	0xbf372860	-0.7154598
8	0xbeed49db	-0.4634541
9	0xbf01cbeb	-0.5070178
10	0xbf18f858	-0.5975394
11	0x3e1fc8f6	0.15604004
12	0xbf8aed2a	-1.0853627
13	0xbce352da	-0.027749468
14	0xbf4e13ef	-0.80499166
15	0xbf9dd11f	-1.2329444
16	0xbf21a3ce	-0.6314057
17	0xbf9fb846	-1.2478111
18	0xbf8646d9	-1.0490371
19	0xbe575dd8	-0.21031892
20	0xbe12ffe8	-0.14355433
21	0xbf32ea28	-0.69888544
22	0xbf3f19cb	-0.7464873
23	0xbee510a1	-0.4473925
24	0xbec1958a	-0.37809402
25	0xbeabfbc0	-0.33590508
26	0xbe6cbab4	-0.23118097
27	0xbf015cae	-0.5053204
28	0xbd16de92	-0.036833353
29	0xbf40e9b5	-0.7535661
30	0xbe940f4f	-0.2891793
31	0xbee24352	-0.44191986
32	0xbee86eff	-0.45397183
33	0xbf346f34	-0.7048218
34	0xbf803558	-1.0016279
35	0xbf80938d	-1.0045029
36	0xbf0e0353	-0.5547382
37	0xbedfff2a	-0.43749362
38	0xbec058b2	-0.3756767
39	0xbf8e70a8	-1.112813
40	0xbf5383f0	-0.82623196
41	0xbefdd0ef	-0.49573466
42	0xbc65e9aa	-0.014032761
43	0xbf1b42bb	-0.606487
44	0xbf65f4bd	-0.89826566
45	0xbe8eedb4	-0.27915728
46	0xbf904088	-1.1269693
47	0xbea85c1b	-0.3288277
48	0xbf18ba78	-0.5965953
49	0xbf5f2570	-0.871665
50	0xbee559d2	-0.4479509
51	0xbf84fafd	-1.0389096
52	0xbeab0c2e	-0.3340773
53	0xbf68618c	-0.90773845
54	0xbcdb163a	-0.026743997
55	0xbfb7a268	-1.4346437
56	0xbe8c5720	-0.2741022
57	0xbf788900	-0.97084045
58	0xbf9452be	-1.1587751
59	0x3e23d941	0.16000845
60	0xbe7b3baa	-0.24534479
61	0xbde75b44	-0.112967044
62	0xbf96d813	-1.1784691
63	0xbf9f11f6	-1.2427356
64	0xbd2d9098	-0.042374223
65	0xbf6a9adf	-0.91642565
66	0xbebab5a4	-0.36466706
67	0xbe2db054	-0.16961795
68	0xbf0f679e	-0.5601748
69	0xbf53755c	-0.8260095
70	0xbf025677	-0.50913185
71	0xbf0eb11a	-0.55738986
72	0x3f183c2e	0.59466827
73	0xbf8b88df	-1.0901145
74	0xbf0a0a2f	-0.5392179
75	0xbf6c044f	-0.92194074
76	0xbf4b13a9	-0.79326874
77	0xbe48bd59	-0.1960348
78	0xbf444b48	-0.7667737
79	0xbf153267	-0.5828003
80	0xbea16612	-0.31523186
81	0xbf3dd735	-0.74156505
82	0xbf21d0ca	-0.6320921
83	0xbe880f56	-0.265742
84	0xbf7c2c8e	-0.98505485
85	0xbfa9ebc3	-1.3275074
86	0xbf78d2af	-0.9719648
87	0xbf0fbc20	-0.5614643
88	0xbf200480	-0.62506866
89	0xbf4f6f5d	-0.810293
90	0xbd9c61aa	-0.076358154
91	0xbf8f11df	-1.1177329
92	0xbf1dab4e	-0.61589515
93	0xbef93a77	-0.48677418
94	0xbee57b5d	-0.4482068
95	0xbf06b6c5	-0.52622634
96	0xbef382b4	-0.47560656
97	0xbf9a03fa	-1.2032464
98	0xbec484aa	-0.38382465
99	0xbf1bc71e	-0.60850704
100	0x3d4da2ba	0.050204016
101	0xbf0a368a	-0.5398947
102	0xbe063f16	-0.13110003
103	0xbe88b84d	-0.2670311
104	0xbf80eb75	-1.0071856
105	0xbf05088a	-0.51966155
106	0xbf809a07	-1.0047005
107	0xbf143ba8	-0.5790353
108	0xbf03ce42	-0.514866
109	0xbeba6ce4	-0.36411202
110	0xbea7ac03	-0.32748422
111	0xbf5a141a	-0.8518692
112	0xbf91be8f	-1.1386279
113	0xbed5b241	-0.4173756
114	0xbf533375	-0.8250039
115	0xbf1f23a6	-0.6216377
116	0xbe197af0	-0.14988303
117	0xbdbb8224	-0.09155682
118	0xbf34cd8d	-0.70626146
119	0xbcdba786	-0.02681328
120	0xbe9ab7d0	-0.30218363
121	0xbf3dda84	-0.74161553
122	0xbea62d5a	-0.32456475
123	0xbee40ffd	-0.44543448
124	0xbcec6a88	-0.028859392
125	0xbf16d175	-0.58913356
126	0xbf509c2a	-0.8148829
127	0xbf3a5324	-0.7278311

feature_extractor.11.running_var f4 [128]
0	0x3fc77d71	1.5585157
1	0x3fc3463f	1.5255812
2	0x3fd87547	1.691079
3	0x3fc26ef2	1.5190108
4	0x3fa8c673	1.3185562
5	0x3fc63a3c	1.5486522
6	0x3fadb9a1	1.3572274
7	0x3fc73884	1.5564122
8	0x3fdcdafe	1.7254331
9	0x3f985723	1.1901592
10	0x3f9d6660	1.2296867
11	0x3fbc326c	1.4702888
12	0x3ff21791	1.8913442
13	0x3fa046a1	1.2521554
14	0x3faa4fd3	1.330561
15	0x3fbd41f2	1.478575
16	0x3f9f2a54	1.2434793
17	0x3fcca8db	1.5989031
18	0x3fd5a9bd	1.6692425
19	0x3fbd4e8b	1.4789594
20	0x3fcb724c	1.5894256
21	0x3fdd9d7e	1.7313688
22	0x3fbd508b	1.4790205
23	0x3fd9bdde	1.7011068
24	0x3fd687f5	1.6760241
25	0x3fb61f25	1.4228255
26	0x3fb832ce	1.4390504
27	0x3ff279aa	1.8943379
28	0x3fa97972	1.3240187
29	0x3fec3701	1.8454286
30	0x3fabc4d8	1.3419447
31	0x3fe47662	1.7848628
32	0x3fc698da	1.5515397
33	0x3fe4853e	1.7853162
34	0x3fc42bf6	1.5325916
35	0x3fcc6fad	1.5971581
36	0x3fbd9a49	1.4812709
37	0x3fb30baa	1.3987935
38	0x3fe28384	1.7696385
39	0x3fa1d44a	1.264291
40	0x3fcca4c1	1.5987779
41	0x3fcae196	1.5850093
42	0x3f9fa419	1.2471954
43	0x3fac26ff	1.3449401
44	0x3fc4ab75	1.5364825
45	0x3fb85a6b	1.4402593
46	0x3fd01de9	1.6259128
47	0x3fd046a6	1.627156
48	0x3fbdb86b	1.4821905
49	0x3fe25353	1.7681679
50	0x3fd85c5d	1.6903187
51	0x3fe2fd30	1.7733517
52	0x3fcce223	1.6006511
53	0x3fd66c87	1.675187
54	0x3f97a11f	1.1846045
55	0x3fdbd0c2	1.7173083
56	0x3fb5aa00	1.4192505
57	0x3fd5a236	1.6690128
58	0x3fd180fa	1.6367486
59	0x3fd0c10d	1.6308914
60	0x3fa75ef8	1.3075857
61	0x3fba9dbe	1.4579389
62	0x3fdef4d8	1.741847
63	0x3fe84aac	1.8147788
64	0x3faea5ed	1.3644387
65	0x40050d9d	2.078956
66	0x3f8eb9e9	1.1150485
67	0x3fb5c4b6	1.4200656
68	0x3fc17ec3	1.511681
69	0x3fa7fbe3	1.3123745
70	0x3fb21208	1.3911753
71	0x3fbaad0c	1.458406
72	0x3fa87282	1.3159945
73	0x3fe8aca4	1.8177686
74	0x3fcc1483	1.594376
75	0x3f94d4f1	1.1627485
76	0x3ff3cab2	1.9046233
77	0x3feb7192	1.8394034
78	0x3fe40af2	1.781584
79	0x3f939aa9	1.1531574
80	0x3fa70016	1.3046901
81	0x3f93ac01	1.1536866
82	0x3fbd9692	1.4811575
83	0x3f9259c0	1.143364
84	0x3feee4ea	1.8663609
85	0x3f9a3cd5	1.2049814
86	0x3fd20c0b	1.6409925
87	0x3ffdebf4	1.9837632
88	0x3f9e627f	1.2373809
89	0x3fc0ae7c	1.5053248
90	0x3f9963f2	1.1983626
91	0x3fe5630c	1.7920852
92	0x3fd70490	1.6798267
93	0x3fa15354	1.2603555
94	0x3fd53db0	1.665945
95	0x3fa7fd3e	1.3124158
96	0x3fb532e2	1.4156153
97	0x3fe2fd65	1.773358
98	0x3fc1ff86	1.5156105
99	0x3fb6492e	1.4241083
100	0x3fae8a35	1.3635927
101	0x3fe315a5	1.774098
102	0x4001ea28	2.0299168
103	0x3fa0f30b	1.2574171
104	0x3fba9b30	1.457861
105	0x3fad360d	1.353212
106	0x3ff86f3c	1.9408946
107	0x3feb8041	1.8398515
108	0x3fb5c062	1.4199336
109	0x3fddea4e	1.7337129
110	0x3fa2f508	1.2731028
111	0x3fc751ae	1.5571802
112	0x3fd94764	1.6974912
113	0x3fbb2d6c	1.4623237
114	0x3fa0b2a1	1.2554513
115	0x3fab357f	1.3375701
116	0x3fb94a8e	1.4475877
117	0x3fe2d826	1.7722213
118	0x3fc5c273	1.5449966
119	0x3fa34cbf	1.2757796
120	0x3fad4653	1.3537086
121	0x3ff2ca0a	1.8967907
122	0x3fcbde92	1.5927298
123	0x3f945782	1.1589205
124	0x3fb5f66a	1.4215825
125	0x3fe50420	1.7891884
126	0x3fa91eb0	1.321249
127	0x3fc237e5	1.5173308
